neural-astar-lidia/my_training/CNN_half_channels/version_2/checkpoints/epoch=17-step=144.ckpt (torch, 411495 bytes, 27 tensors)

planner.astar.neighbor_filter f4 [1, 1, 3, 3]
1.0 1.0 1.0 1.0 0.0 1.0 1.0 1.0
1.0
00000000: 0000 803f 0000 803f 0000 803f 0000 803f
00000010: 0000 0000 0000 803f 0000 803f 0000 803f
00000020: 0000 803f

planner.encoder.model.0.weight f4 [16, 2, 3, 3]
-0.2030796 -0.040845577 -0.11527066 -0.030502154 -0.23828584 0.07219604 -0.22172162 -0.043802354
0.063673444 -0.04365491 0.15418832 0.086926915 0.14658548 0.13599053 -0.06427519 0.11287203
-0.04448964 0.115381844 -0.13662274 0.1120147 0.0514015 -0.10554352 -0.09915592 0.07430729
0.2127857 0.12573902 -0.04172803 0.06428422 0.14878544 -0.20643711 0.057256516 -0.047406167
0.13265333 -0.03153643 0.042784773 0.093031086 0.16829173 -0.0062164664 0.24909641 -0.18351434
-0.027467648 -0.22790618 0.027155392 0.06717948 -0.07814967 0.1503319 0.019886218 -0.17698446
0.20585302 0.14275318 0.0942307 0.22091176 0.10914943 0.1395107 0.20503123 -0.05286618
-0.18598828 -0.114688285 -0.02823142 0.023914156 -0.015318414 0.12441957 0.108678006 -0.16525818
-0.08495082 -0.10452402 0.11727887 -0.100909196 -0.14552951 -0.0024476605 -0.10580733 -0.023577906
-0.19860922 0.19207846 0.10636545 -0.08735222 -0.13283232 -0.028376404 0.18047576 -0.17291453
-0.105803706 0.051318843 -0.16947483 -0.021650337 -0.1502089 0.25549933 0.19488159 -0.22494549
-0.08802557 0.08903161 0.014401976 0.07139624 -0.16759503 -0.12492649 0.1155587 -0.15757404
-0.05150368 0.12285622 0.14587055 0.030628296 0.06058968 0.17659219 0.039450534 -0.029497083
0.18674353 0.25787127 0.09467152 -0.04107332 -0.18766984 -0.22013861 0.031908564 -0.09866393
-0.043116357 0.039383985 0.20932528 0.27075303 0.011517855 -0.10483005 0.07672548 -0.07796256
-0.33619383 0.06452079 0.19530033 -0.24329221 -0.048367668 0.08042057 -0.15941286 -0.19237854
0.17211437 -0.060909487 0.16730288 0.016373685 0.08260837 -0.14308107 -0.056702573 0.14362976
0.13948272 -0.008242037 0.05118346 0.17841733 -0.20361577 0.21625432 -0.056554142 -0.03136145
0.12806499 -0.17527808 0.010406066 0.20138218 0.05921995 -0.09317747 -0.089420505 0.121939264
0.05569449 0.1341739 -0.13179481 0.113118574 0.04607744 0.0697751 0.22668941 0.21599725
0.18655849 0.17000413 0.09262996 -0.07700959 -0.22099152 -0.20790528 -0.1825632 -0.11103608
0.107475065 0.06548313 -0.0682308 -0.087299645 0.26613933 0.080247656 0.069324665 0.22132342
-0.15519549 -0.21825434 -0.18708143 -0.005012737 -0.18432954 0.19598043 -0.018394327 0.13677697
-0.098649904 -0.020832304 0.038295265 -0.058248334 0.21458189 -0.112388276 0.1071224 -0.16032428
0.017660854 -0.051519826 0.096184544 0.2207759 0.05134204 -0.050642144 -0.067384124 0.16459784
-0.12815861 0.16812868 -0.07275495 0.11323465 0.20974603 0.19589116 0.118041955 0.10705197
-0.077662416 0.021383489 0.11569727 -0.054558016 0.076664686 0.1407937 -0.21359171 -0.20618947
-0.11924307 0.058316506 0.009217635 0.06489541 -0.031138366 -0.10516034 0.02857443 0.17552596
-0.09701379 0.1781023 0.09427654 0.30672875 -0.21665984 -0.2214834 0.04944356 -0.27032298
-0.17257585 0.16367066 0.113681436 -0.24050817 0.15085806 -0.015872732 0.19289117 -0.14353028
-0.18908004 -0.15546103 -0.05425137 -0.2895275 -0.08509811 -0.14759198 -0.13773914 -0.092976704
-0.06635741 -0.21329485 0.09046322 -0.14271548 0.16807525 0.079727925 -0.09669999 0.050080337
00000000: 19f4 4fbe b14d 27bd 0613 ecbd a7df f9bc
00000010: 3401 74be 84db 933d fe0a 63be 196a 33bd
00000020: 3967 823d 7ecf 32bd 8be3 1d3e bd06 b23d
00000030: 811a 163e 1a41 0b3e b6a2 83bd 7329 e73d
00000040: c53a 36bd 514d ec3d d5e6 0bbe f767 e53d
00000050: 618a 523d 3327 d8bd 4212 cbbd 6c2e 983d
00000060: 7fe4 593e bbc1 003e 03eb 2abd 72a7 833d
00000070: 365b 183e 4064 53be cf85 6a3d f82c 42bd
00000080: 46d6 073e 582c 01bd 163f 2f3d 1587 be3d
00000090: ab54 2c3e 80b3 cbbb 2113 7f3e 2feb 3bbe
000000a0: d503 e1bc 3d60 69be fc74 de3c 6595 893d
000000b0: ef0c a0bd 9bf0 193e 6ce8 a23c 6a3b 35be
000000c0: 22cb 523e e42d 123e 06fc c03d b136 623e
000000d0: bd89 df3d e5db 0e3e b5f3 513e 358a 58bd
000000e0: b673 3ebe b1e1 eabd 9445 e7bc 9fe7 c33c
000000f0: 16fa 7abc b0cf fe3d 9392 de3d 7139 29be
00000100: b2fa adbd b010 d6bd e72f f03d 7ba9 cebd
00000110: b005 15be ee68 20bb 83b1 d8bd 7426 c1bc
00000120: 3760 4bbe 37b0 443e 21d6 d93d b9e5 b2bd
00000130: 3205 08be a275 e8bc a3ce 383e 8210 31be
00000140: 9daf d8bd b533 523d cf8a 2dbe 0c5c b1bc
00000150: 5dd0 19be cfd0 823e 0a8f 473e 1c58 66be
00000160: c046 b4bd 3456 b63d 44f6 6b3c 3138 923d
00000170: 089e 2bbe 76d9 ffbd 0aaa ec3d 175b 21be
00000180: 86f5 52bd 0b9c fb3d 175f 153e 31e8 fa3c
00000190: e22c 783d 95d4 343e e296 213d dea3 f1bc
000001a0: b239 3f3e b407 843e 24e3 c13d 7f3c 28bd
000001b0: 862c 40be 046c 61be 8eb2 023d 5110 cabd
000001c0: c79a 30bd 1a51 213d 5e59 563e 24a0 8a3e
000001d0: 63b5 3c3c 23b1 d6bd 4022 9d3d d6aa 9fbd
000001e0: 9921 acbe 7a23 843d cffc 473e 9821 79be
000001f0: 2d1d 46bd 8ab3 a43d 203d 23be e1fe 44be
00000200: c03e 303e 3a7c 79bd 7251 2b3e 1b22 863c
00000210: 942e a93d d883 12be f540 68bd ae13 133e
00000220: 8fd4 0e3e 9c09 07bc bfa5 513d 08b3 363e
00000230: a780 50be c671 5d3e 51a5 67bd dd74 00bd
00000240: 7823 033e 197c 33be 347e 2a3c 2137 4e3e
00000250: 9e90 723d d4d3 bebd 1922 b7bd 4bbb f93d
00000260: e81f 643d e264 093e 38f5 06be b6aa e73d
00000270: b3bb 3c3d 3fe6 8e3d 4521 683e 622e 5d3e
00000280: 3009 3f3e 9015 2e3e c7b4 bd3d 34b7 9dbd
00000290: 9a4b 62be 1fe5 54be d9f1 3abe e266 e3bd
000002a0: e31b dc3d 051c 863d 97bc 8bbd 28ca b2bd
000002b0: 6a43 883e e258 a43d 17fa 8d3d 9ba2 623e
000002c0: 91eb 1ebe 117e 5fbe 4692 3fbe e341 a4bb
000002d0: e2c0 3cbe 18af 483e b3af 96bc 430f 0c3e
000002e0: f608 cabd 82a8 aabc 7fdb 1c3d ce95 6ebd
000002f0: 5bbb 5b3e d32b e6bd fd62 db3d 0c2c 24be
00000300: 7fad 903c 7406 53bd 67fc c43d 1413 623e
00000310: 084c 523d 236e 4fbd b000 8abd 568c 283e
00000320: 033c 03be ed29 2c3e 8c00 95bd 91e7 e73d
00000330: aac7 563e b197 483e fbbf f13d 103e db3d
00000340: 790d 9fbd 6d2c af3c b1f2 ec3d 3a78 5fbd
00000350: 6002 9d3d 392c 103e c9b7 5abe 5523 53be
00000360: b635 f4bd 4add 6e3d 9005 173c e2e7 843d
00000370: e315 ffbc 4e5e d7bd ec14 ea3c 14bd 333e
00000380: 2aaf c6bd 7360 363e 0f14 c13d 8d0b 9d3e
00000390: 14dc 5dbe 8bcc 62be 5585 4a3d c667 8abe
000003a0: b9b7 30be 4899 273e d0d1 e83d c647 76be
000003b0: 897a 1a3e 8807 82bc 4385 453e 9af9 12be
000003c0: 339e 41be 2d31 1fbe af36 5ebd f33c 94be
000003d0: eb47 aebd 5a22 17be 7d0b 0dbe 926a bebd
000003e0: 65e6 87bd f769 5abe c844 b93d 0224 12be
000003f0: eb1b 2c3e 6548 a33d a50a c6bd 0a21 4d3d

planner.encoder.model.0.bias f4 [16]
0.09525064 -0.011892154 -0.11856021 -0.070344664 -0.010476065 0.14637415 -0.017285647 -0.059859715
-0.032085765 0.038749617 0.18844226 0.17786637 -0.013935276 0.031285793 0.21386003 0.103528105
00000000: c412 c33d 4fd7 42bc b2cf f2bd dd10 90bd
00000010: cda3 2bbc 1be3 153e a19a 8dbc 762f 75bd
00000020: 5d6c 03bd ebb7 1e3d 02f7 403e 9a22 363e
00000030: c950 64bc 8825 003d 20fe 5a3e 8b06 d43d

planner.encoder.model.1.weight f4 [16]
0.9728058 0.9936261 1.0247805 1.0062891 0.9733158 0.9857111 0.9977698 1.00382
1.059339 0.9888871 1.0014024 0.98928297 0.9972585 1.0123072 1.0665685 1.025371
00000000: cd09 793f 485e 7e3f 022c 833f 15ce 803f
00000010: 392b 793f 9057 7c3f d76d 7f3f 2c7d 803f
00000020: 6c98 873f b427 7d3f f42d 803f a641 7d3f
00000030: 554c 7f3f 4893 813f 5185 883f 5b3f 833f

planner.encoder.model.1.bias f4 [16]
-0.024546223 -0.0106511805 0.021606509 0.02629559 -0.017641569 -0.069638185 -0.019722 -0.007910071
0.014300078 -0.046069857 -0.027026186 -0.021378433 -0.0066270307 -0.0065482985 -0.00028904027 -0.0023624513
00000000: 2915 c9bc 4a82 2ebc 2200 b13c d969 d73c
00000010: 0d85 90bc 779e 8ebd 0890 a1bc 3e99 01bc
00000020: e04a 6a3c bfb3 3cbd 0566 ddbc d321 afbc
00000030: 9027 d9bb 1c93 d6bb 548a 97b9 5bd3 1abb

planner.encoder.model.1.running_mean f4 [16]
-0.54460096 0.15302205 -0.1307231 -0.016536891 -0.23042426 0.13100381 -0.005442219 -0.20784138
0.1581206 -0.4913255 0.36213782 0.776536 -0.019365942 -0.26574585 0.41476184 0.48823443
00000000: f86a 0bbf d0b1 1c3e 47dc 05be 6078 87bc
00000010: 56f4 6bbe dd25 063e a454 b2bb 5fd4 54be
00000020: 5eea 213e 048f fbbe 216a b93e 10cb 463f
00000030: 53a5 9ebc d70f 88be aa5b d43e ddf9 f93e

planner.encoder.model.1.running_var f4 [16]
0.032091904 0.00870158 0.018311687 0.0057934355 0.0074577397 0.014336483 0.0314098 0.0084053455
0.0074062296 0.028439736 0.005623417 0.03162433 0.0069596497 0.014125877 0.0063257287 0.016831262
00000000: cd72 033d 1291 0e3c 6402 963c dcd6 bd3b
00000010: 0e60 f43b 91e3 6a3c 90a7 003d 93b6 093c
00000020: f5af f23b 73fa e83c a444 b83b 8388 013d
00000030: c60d e43b 3970 673c 0f48 cf3b b7e1 893c

planner.encoder.model.3.weight f4 [32, 16, 3, 3]
-0.009040027 0.079717524 0.016000137 -0.009572281 0.040610623 -0.006346513 -0.014917943 -0.024835376
0.050876714 -0.0075266394 -0.058796305 0.043887872 -0.016270613 0.028314952 0.00972191 0.021495814
0.008889884 0.03263639 0.045681775 -0.024400635 0.05629852 -0.020787409 0.052291166 -0.015343837
-0.039351087 0.06111415 -0.002379903 -0.00899331 0.017098956 0.022759719 -0.0018217738 -0.097058445
0.06344077 0.06784299 -0.06657441 0.0076817023 0.084238485 0.032511007 0.02013877 0.031050164
0.022310859 -0.0062000887 -0.097991206 -0.061745677 -0.090362005 -0.03254619 -0.038643368 0.042514864
-0.0015850147 -0.0244993 -0.09806613 -0.014926544 -0.035528954 -0.028830025 0.010621082 0.01623219
0.013789898 -0.027218005 -0.028770896 0.028913725 -0.12090556 -0.027055562 -0.072316855 -0.045942947
0.03384574 0.041059263 0.104971565 0.03655208 0.06555584 -0.062243935 -0.10701245 -0.016017085
0.01916689 0.021762477 -0.05288674 0.049392935 -0.039101936 0.029021554 -0.07299248 -0.019128278
0.06650061 0.053423386 0.03181368 0.055577163 -0.0004573665 -0.08489469 -0.00015578314 0.056442313
0.015138367 -0.09457542 -0.042321518 0.045971844 -0.010372397 -0.0099685555 -0.03580093 -0.0028239726
-0.013177953 -0.0888609 0.024177035 0.03079395 0.056467734 0.05788805 -0.047337744 0.05634641
0.019967413 -0.011245801 0.028783191 0.11440552 -0.05683921 -0.02441898 0.001038552 -0.10006823
-0.04120315 -0.069396116 0.010713118 -0.03793638 -0.06315832 0.029322648 0.028098896 -0.01406861
-0.03616687 -0.012286978 -0.06691658 0.042309664 -0.062675916 -0.0662831 0.02331921 -0.0941364
-0.068612576 0.078613095 -0.048311897 0.008715425 0.08056909 -0.010046115 0.043405198 0.0034547858
-0.008966264 -0.10199875 -0.04877743 -0.024759375 -0.090105146 -0.05108649 0.028897239 -0.08633382
-0.10765813 -0.01503719 -0.018390972 -0.0015722772 0.008088818 0.098957606 -0.008262577 -0.071406566
-0.03918319 -0.08155382 -0.04764304 0.0030575667 -0.0073416447 -0.0112178 0.03204519 -0.0075574643
-0.018056229 -0.043116856 0.025975475 -0.009176653 -0.034194592 0.056665573 -0.09008906 0.024726897
-0.04372654 0.05458912 0.08711752 0.0029157274 0.021215463 -0.05517743 -0.017876208 -0.020130677
-0.020680822 -0.028913744 0.04720417 -0.0052921637 -0.030469969 -0.02955589 -0.073858716 -0.056868307
-0.038147878 0.061995815 -0.09551179 0.011683316 0.10619434 -0.0643641 -0.087626375 0.027653381
0.05580971 0.031019466 0.042593874 0.07107944 0.0012062814 0.067425795 -0.06985729 0.009602685
-0.055788476 0.009228108 0.039349742 0.054598868 0.021863554 -0.015351712 0.04042273 -0.04596475
0.048450347 0.067307755 -0.1003791 0.029442718 0.0702101 -0.013121474 -0.073903576 0.10847651
-0.06655537 -0.05090638 0.03969101 0.02407546 0.0029981686 -0.006888118 0.02641275 0.0667216
-0.0072777825 0.020433556 -0.018770427 -0.06388105 -0.042314686 -0.06565082 0.039905008 -0.020091329
-0.020579796 -0.0017202632 -0.054422125 0.020517968 -0.06678104 0.064384654 0.036503725 -0.08675343
-0.09241451 -0.08693524 0.08492638 0.07551214 0.024067404 -0.044424437 0.026045846 -0.06275604
0.0023541856 -0.02358391 0.02424664 -0.019527055 -0.0030351104 -0.026050841 0.0638324 -0.053466134
00000000: 9f1c 14bc f142 a33d b812 833c 0ed5 1cbc
00000010: 5357 263d 69f6 cfbb 636a 74bc 8f73 cbbc
00000020: 1a64 503d 07a2 f6bb 65d4 70bd c5c3 333d
00000030: f349 85bc c2f4 e73c a548 1f3c fd17 b03c
00000040: e0a6 113c bcad 053d d01c 3b3d d7e3 c7bc
00000050: 4799 663d 5b4a aabc 432f 563d b864 7bbc
00000060: 9b2e 21bd d552 7a3d 26f8 1bbb ad58 13bc
00000070: 1c13 8c3c 9772 ba3c 96c8 eeba 94c6 c6bd
00000080: 3ced 813d 44f1 8a3d 2a58 88bd cab6 fb3b
00000090: 3a85 ac3d 432a 053d 10fa a43c ea5c fe3c
000000a0: 43c5 b63c 1d2a cbbb 9daf c8bd 09e9 7cbd
000000b0: b70f b9bd 274f 05bd 8248 1ebd 1124 2e3d
000000c0: 45c0 cfba c2b2 c8bc e5d6 c8bd 778e 74bc
000000d0: cf86 11bd f22c ecbc 0c04 2e3c 5ff9 843c
000000e0: 06ef 613c 4bf8 debc f1b0 ebbc 7adc ec3c
000000f0: 569d f7bd a0a3 ddbc dc1a 94bd ac2e 3cbd
00000100: d5a1 0a3d c22d 283d 55fb d63d a2b7 153d
00000110: 2442 863d 7ff3 7ebd 5829 dbbd 4336 83bc
00000120: e203 9d3c 3947 b23c c49f 58bd 3f50 4a3d
00000130: 5a29 20bd 9cbe ed3c 157d 95bd e8b2 9cbc
00000140: 7931 883d 7bd2 5a3d 104f 023d e1a4 633d
00000150: b1ca efb9 44dd adbd b859 23b9 0e30 673d
00000160: ea06 783c c2b0 c1bd 5459 2dbd f94c 3c3d
00000170: fcf0 29bc 2753 23bc ffa3 12bd 6612 39bb
00000180: 57e8 57bc b4fc b5bd eb0e c63c 9843 fc3c
00000190: b64a 673d 051c 6d3d 39e5 41bd 7ecb 663d
000001a0: b392 a33c 4f40 38bc baca eb3c 714d ea3d
000001b0: 3bd0 68bd 500a c8bc 0620 883a 92f0 ccbd
000001c0: a2c4 28bd 8d1f 8ebd 1386 2f3c 2d63 1bbd
000001d0: 2659 81bd 0d36 f03c a82f e63c 0780 66bc
000001e0: b623 14bd 524f 49bc 8f0b 89bd e64c 2d3d
000001f0: 3b5c 80bd 6fbf 87bd ee07 bf3c 96ca c0bd
00000200: c084 8cbd e7ff a03d b2e2 45bd 24cb 0e3c
00000210: 6801 a53d 7698 24bc a6c9 313d b069 623b
00000220: 3de7 12bc b8e4 d0bd d8ca 47bd 2cd4 cabc
00000230: 0c89 b8bd 1140 51bd e7b9 ec3c c9cf b0bd
00000240: de7b dcbd 8c5e 76bc aaa8 96bc de14 ceba
00000250: f686 043c 49aa ca3d c25f 07bc 9b3d 92bd
00000260: 8d7e 20bd b005 a7bd 5925 43bd 7561 483b
00000270: 2e92 f0bb ddca 37bc d141 033d 9ba4 f7bb
00000280: a8ea 93bc 4d9b 30bd 85ca d43c ac59 16bc
00000290: a10f 0cbd 291a 683d 9d80 b8bd 1090 ca3c
000002a0: 9a1a 33bd d798 5f3d ac6a b23d ca15 3f3b
000002b0: 0dcc ad3c bb01 62bd 2071 92bc 17e9 a4bc
000002c0: d46a a9bc 84dc ecbc 2959 413d e369 adbb
000002d0: 289c f9bc 321f f2bc 3d43 97bd beee 68bd
000002e0: f340 1cbd 53ef 7d3d af9b c3bd 616b 3f3c
000002f0: 6b7c d93d 53d1 83bd 7575 b3bd 5889 e23c
00000300: b998 643d 891c fe3c ea76 2e3d 1992 913d
00000310: 161c 9e3a 8916 8a3d 5711 8fbd 9554 1d3c
00000320: 7582 64bd 7e31 173c 322d 213d 10a3 5f3d
00000330: 321b b33c bf85 7bbc 4e92 253d 8945 3cbd
00000340: df73 463d a6d8 893d 8f93 cdbd db31 f13c
00000350: 50ca 8f3d 73fb 56bc c25a 97bd ef28 de3d
00000360: 2f4e 88bd 3583 50bd 0a93 223d e639 c53c
00000370: ec7c 443b b9b5 e1bb 8d5f d83c 56a5 883d
00000380: 777a eebb 4664 a73c 70c4 99bc 11d4 82bd
00000390: 2a52 2dbd f073 86bd 6f73 233d 9296 a4bc
000003a0: f696 a8bc 747a e1ba bce9 5ebd 4c15 a83c
000003b0: 7fc4 88bd 1adc 833d ee84 153d c8ab b1bd
000003c0: d243 bdbd 1a0b b2bd e2ed ad3d 1ca6 9a3d
000003d0: 0129 c53c 66f6 35bd 195e d53c 3d86 80bd
000003e0: ae48 1a3b 0b33 c1bc e4a0 c63c 34f7 9fbc
000003f0: b4e8 46bb 9368 d5bc 90ba 823d 4eff 5abd

planner.encoder.model.3.bias f4 [32]
-0.019136978 -0.06100554 0.026316995 -0.05706678 0.06840735 -0.027785392 0.037930872 0.034048755
-0.03513061 -0.033075 -0.024119567 0.028589403 0.034723587 -0.069372796 -0.03745306 0.07327757
0.03431897 -0.006224561 -0.052922558 -0.018926755 -0.010696009 0.033612765 0.0056437906 -0.036748562
-0.03996616 -0.011191999 0.05267702 0.034663446 0.022621194 0.012155883 -0.06930764 -0.041377425
00000000: 27c5 9cbc f2e0 79bd bd96 d73c dbbe 69bd
00000010: 2719 8c3d 319e e3bc 675d 1b3d b576 0b3d
00000020: 1de5 0fbd a779 07bd 6696 c5bc 5334 ea3c
00000030: 523a 0e3d 5313 8ebd 6168 19bd 8d12 963d
00000040: 0c92 0c3d 67f7 cbbb 53c5 58bd 480c 9bbc
00000050: 503e 2fbc 8aad 093d 8cef b83b a985 16bd
00000060: 8eb3 23bd a55e 37bc dcc3 573d 42fb 0d3d
00000070: 1550 b93c 7829 473c 2af1 8dbd 607b 29bd

planner.encoder.model.4.weight f4 [32]
0.98605376 0.95341843 1.0216051 1.044649 1.028369 0.9861808 0.98879826 0.9951415
1.0536596 0.9965944 1.0000415 0.989558 1.0119962 1.0030857 0.964949 0.95719016
0.96014404 0.99277747 0.98783386 1.0465895 0.9934379 1.0132729 0.9888779 1.0338147
1.0170691 0.99065053 1.0115397 0.96781254 1.0134447 1.0468299 0.97946006 1.0016687
00000000: 056e 7c3f 3b13 743f f5c3 823f 0fb7 853f
00000010: 98a1 833f 5876 7c3f e221 7d3f 98c1 7e3f
00000020: 51de 863f d020 7f3f 5c01 803f ac53 7d3f
00000030: 1789 813f 1d65 803f e606 773f 6a0a 753f
00000040: 00cc 753f aa26 7e3f aee2 7c3f a5f6 853f
00000050: f251 7e3f edb2 813f 1a27 7d3f 0a54 843f
00000060: 522f 823f 469b 7d3f 227a 813f 90c2 773f
00000070: 8eb8 813f 86fe 853f e5bd 7a3f ae36 803f

planner.encoder.model.4.bias f4 [32]
-0.008223234 -0.032989677 -0.014799159 0.023240592 -0.009770363 -0.0076035927 -0.08090322 -0.02393239
-0.0030581555 -0.035084996 -0.0373074 -0.108247146 -0.04411677 -0.04890922 -0.0102579985 -0.0603707
-0.0069826487 -0.03687497 -0.036820658 -0.014810837 -0.0039227093 0.01413775 -0.028543716 0.011160969
0.005880281 0.0021921345 -0.03123655 -0.03479986 0.0074140197 0.027121471 -0.025805132 -0.007530449
00000000: beba 06bc 2f20 07bd 2c78 72bc 0e63 be3c
00000010: df13 20bc 8f27 f9bb 96b0 a5bd dc0d c4bc
00000020: 566b 48bb 49b5 0fbd a5cf 18bd aeb0 ddbd
00000030: c9b3 34bd 0955 48bd 2a11 28bc 4447 77bd
00000040: b4ce e4bb 350a 17bd 42d1 16bd 27a9 72bc
00000050: 128a 80bb 05a2 673c 83d4 e9bc 7fdc 363c
00000060: 5faf c03b eaa9 0f3b cbe3 ffbc 4c8a 0ebd
00000070: 4ef1 f23b d92d de3c 4965 d3bc fcc1 f6bb

planner.encoder.model.4.running_mean f4 [32]
-0.20548573 -0.30293214 -0.3482943 -0.23137978 -0.03142301 0.0070969174 0.069323786 0.19041672
-0.057334542 -0.14321901 -0.22904105 -0.05003729 0.1285794 0.059337724 -0.41559827 -0.03996812
0.41783494 -0.28247616 0.31244913 -0.29204482 0.14965884 -0.20840485 0.21728116 -0.32346776
-0.48557386 0.04710146 -0.21066679 0.25480238 -0.5203504 0.07536174 -0.31169832 0.13751428
00000000: da6a 52be ec19 9bbe a153 b2be d2ee 6cbe
00000010: 6ab5 00bd 428d e83b a1f9 8d3d 9afc 423e
00000020: a0d7 6abd 01a8 12be bd89 6abe e7f3 4cbd
00000030: 51aa 033e 1d0c 733d 4cc9 d4be 9db5 23bd
00000040: 76ee d53e b7a0 90be 55f9 9f3e e686 95be
00000050: 2b40 193e 1568 55be f47e 5e3e 919d a5be
00000060: 239d f8be 76ed 403d 09b9 57be 7575 823e
00000070: af35 05bf 4257 9a3d ec96 9fbe 8bd0 0c3e

planner.encoder.model.4.running_var f4 [32]
0.19879156 0.16678342 0.1303839 0.14281502 0.08117945 0.15356307 0.17445683 0.21443331
0.06284036 0.08648331 0.14467564 0.11571574 0.13207155 0.1731489 0.15808156 0.044369634
0.22073458 0.15544707 0.16125885 0.07835072 0.038692355 0.12574886 0.09126468 0.20268695
0.07979214 0.15264261 0.077978514 0.17018569 0.092291445 0.11273441 0.35188976 0.10574043
00000000: 0490 4b3e 46c9 2a3e 5b83 053e 1a3e 123e
00000010: 6941 a63d a33f 1d3e d0a4 323e 6894 5b3e
00000020: 72b2 803d 291e b13d da25 143e 60fc ec3d
00000030: c43d 073e f24d 313e 22e0 213e efbc 353d
00000040: 3f08 623e 842d 1f3e 0a21 253e 5876 a03d
00000050: e07b 1e3d 4fc4 003e fae8 ba3d 2b8d 4f3e
00000060: 106a a33d 584e 1c3e 33b3 9f3d 2845 2e3e
00000070: 4c03 bd3d 4ce1 e63d e52a b43e 708e d83d

planner.encoder.model.6.weight f4 [64, 32, 3, 3]
-0.032435577 -0.05680503 -0.0027319982 0.031192604 -0.05979579 0.04848095 -0.043527443 -0.026277801
-0.0377452 -0.023413379 0.06275474 -0.062450018 0.005912484 -0.07015148 -0.018353425 0.011133869
0.02165352 0.021217883 -0.09206252 0.011548195 -0.009399993 0.0067711943 0.03628561 0.05612031
-0.058735725 0.039114065 0.012283409 0.063291 -0.024326544 0.07020242 0.00441208 -0.04066775
-0.0055299094 0.044944983 0.007725928 0.045698643 -0.045040436 0.043891713 0.079640284 0.020053037
0.023155417 -0.039304458 -0.03898038 -0.018305343 -0.02645993 -0.042249106 0.022222357 -0.025193352
0.08117401 -0.006055123 0.028850364 0.008119638 0.010040359 0.018697202 -0.026442375 -0.020289391
0.028125696 -0.036439527 -0.01249202 -0.032822642 -0.026966017 -0.041327506 -0.0023679296 0.012939885
0.032311074 0.09124143 -0.0088013355 -0.06947398 0.046073414 -0.034692954 0.039112467 0.04944189
0.042085312 0.06729135 -0.045601185 0.0027172158 0.02583765 0.06371305 0.037145995 0.03685413
-0.062392928 0.051197585 -0.038623035 0.03395809 -0.0539465 -0.026093535 -0.0076669026 -0.0012086738
0.010371373 -0.040877737 0.0048770183 0.039366607 -0.026122432 -0.022652753 0.01528074 0.051608548
0.06436067 -0.0102398405 0.061179813 -0.022847231 -0.04932542 0.03287765 0.038005363 -0.025546085
-0.048416477 -0.08065467 0.06914996 -0.04485746 0.0077107926 -0.08444312 -0.048022255 0.039673403
0.08168715 -0.052667297 0.015337204 -0.024428423 -0.037843693 -0.0046529174 -0.03787425 0.046056084
-0.024426777 0.051211238 0.044322662 0.055530984 0.02898267 -0.015144013 -0.050270405 -0.02625542
0.04066265 -0.024165101 -0.02748472 -0.033439074 0.04191693 0.049768005 0.002403133 0.016698612
-0.06145075 -0.04502798 -0.065140344 -0.0062749023 0.0020113653 -0.027600566 -0.02751102 -0.058010437
0.005033969 -0.024832161 -0.0042174486 0.059725486 -0.028855596 0.043765925 0.033266544 -0.0018449788
-0.0001116628 -0.03340657 0.036085784 0.004684482 0.002428467 -0.01473185 -0.05117218 0.00096243835
0.04261677 -0.027814161 -0.09678886 -0.05453782 0.07096655 0.033882372 -0.06529383 0.020747937
-0.030268393 0.0065945527 -0.0521677 -0.0018220401 -0.038277153 0.011911681 0.030516092 -0.009729071
-0.04823351 -0.030257506 -0.057569496 0.05014689 -0.04783638 -0.05136713 -0.08831885 -0.034605227
-0.055469435 0.05021761 -0.029152397 0.035257127 0.03951643 -0.04178162 -0.040595796 0.050624564
-0.042124633 -0.003206761 -0.10646946 0.012292294 0.026833864 -0.03794028 -0.0197373 0.033249952
-0.049559593 -0.0016608906 0.013423528 -0.029722407 0.06827724 -0.002743563 -0.009113445 -0.020531453
-0.026015969 -0.041977942 0.041340332 -0.018707052 0.03520717 -0.007925135 -0.07210819 0.012301922
-0.011354085 0.06785371 -0.08096106 0.024419568 0.020842502 -0.08190052 -0.052146394 0.051428087
-0.038095467 0.09160769 -0.043194592 -0.07202816 0.06095449 0.04693831 -0.023365514 0.0054626535
0.072046384 0.0012904924 0.003742837 0.007124395 0.03952762 0.010093883 -0.048114337 -0.042990178
-0.07066589 0.050146684 0.023385568 -0.019174576 -0.0052180956 0.071406454 0.034694534 -0.02632521
-0.0046045105 -0.05425123 -0.008734247 -0.05701503 0.029219447 -0.0030372986 -0.031484075 -0.0016389027
00000000: 2bdb 04bd 64ac 68bd 530b 33bb a287 ff3c
00000010: 6eec 74bd f693 463d d549 32bd 8b44 d7bc
00000020: b69a 1abd 6acd bfbc 8f85 803d 97cb 7fbd
00000030: 83bd c13b 94ab 8fbd ec59 96bc d56a 363c
00000040: b962 b13c 20d1 ad3c 468b bcbd a434 3d3c
00000050: 6e02 1abc e5e0 dd3b 38a0 143d 69de 653d
00000060: df94 70bd 1236 203d 5a40 493c b69e 813d
00000070: 7648 c7bc 49c6 8f3d 3693 903b 3a93 26bd
00000080: 3e34 b5bb 3b18 383d c829 fd3b 802e 3b3d
00000090: 527c 38bd ccc7 333d 721a a33d 4446 a43c
000000a0: 6eb0 bd3c b6fd 20bd e4a9 1fbd 16f5 95bc
000000b0: 7fc2 d8bc 660d 2dbd a90b b63c 4a62 cebc
000000c0: 8f3e a63d 0e6a c6bb 9957 ec3c 3b08 053c
000000d0: 5180 243c e02a 993c ae9d d8bc f035 a6bc
000000e0: dc67 e63c 9d41 15bd 54ab 4cbc 0971 06bd
000000f0: d6e7 dcbc 0847 29bd 442f 1bbb d001 543c
00000100: 9e58 043d c9dc ba3d 7a33 10bc 6048 8ebd
00000110: 7ab7 3c3d 331a 0ebd 6534 203d 9483 4a3d
00000120: a661 2c3d 0cd0 893d 4fc8 3abd 5113 323b
00000130: 7ba9 d33c fd7b 823d 6626 183d 5bf4 163d
00000140: ba8f 7fbd 8fb4 513d 3033 1ebd a317 0b3d
00000150: 01f7 5cbd 1cc2 d5bc a43a fbbb 5d6c 9eba
00000160: b1ec 293c 6a6f 27bd 65cf 9f3b e13e 213d
00000170: b6fe d5bc 4492 b9bc 125c 7a3c 7c63 533d
00000180: 87cf 833d 01c5 27bc af97 7a3d 1e2a bbbc
00000190: 7409 4abd b7aa 063d 83ab 1b3d 0646 d1bc
000001a0: 5b50 46bd 472e a5bd 7f9e 8d3d 75bc 37bd
000001b0: d1aa fc3b 84f0 acbd fcb2 44bd 9480 223d
000001c0: 984b a73d aab9 57bd e548 7b3c 1e1e c8bc
000001d0: fd01 1bbd 8077 98bb 0822 1bbd 4ea5 3c3d
000001e0: aa1a c8bc e0c2 513d ae8b 353d 7574 633d
000001f0: 106d ed3c 981e 78bc 57e8 4dbd 9b15 d7bc
00000200: e18d 263d e4f5 c5bc a327 e1bc 69f7 08bd
00000210: 16b1 2b3d 89d9 4b3d e27d 1d3b 87cb 883c
00000220: c8b3 7bbd 426f 38bd 4d68 85bd b29d cdbb
00000230: 1cd1 033b 951a e2bc ca5e e1bc 5a9c 6dbd
00000240: fef3 a43b d16c cbbc 8632 8abb b6a2 743d
00000250: 9262 ecbc e643 333d 8042 083d 37d3 f1ba
00000260: 822c eab8 54d5 08bd b0ce 133d 4880 993b
00000270: ea26 1f3b db5d 71bc eb99 51bd 254c 7c3a
00000280: ec8e 2e3d 86da e3bc 3d39 c6bd 0d63 5fbd
00000290: e956 913d 3ec8 0a3d c6b8 85bd 94f7 a93c
000002a0: 6cf5 f7bc 1e17 d83b ccad 55bd 85d1 eeba
000002b0: 81c8 1cbd 3629 433c e2fc f93c ae66 1fbc
000002c0: 8090 45bd 97de f7bc fecd 6bbd d366 4d3d
000002d0: 14f0 43bd 5766 52bd 83e0 b4bd 36be 0dbd
000002e0: eb33 63bd fbb0 4d3d 02d1 eebc c769 103d
000002f0: fbdb 213d 3423 2bbd c747 26bd b45b 4f3d
00000300: e18a 2cbd 8628 52bb a90c dabd 9e65 493c
00000310: b1d2 db3c 4467 1bbd 1eb0 a1bc 1a31 083d
00000320: 00ff 4abd 3eb2 d9ba 5bee 5b3c 687c f3bc
00000330: f0d4 8b3d 59cd 33bb 8f50 15bc 9431 a8bc
00000340: 711f d5bc 10f1 2bbd 7b54 293d 883f 99bc
00000350: 6535 103d 6dd8 01bc 75ad 93bd 008e 493c
00000360: 7c06 3abc e3f6 8a3d eace a5bd 8c0b c83c
00000370: e5bd aa3c 76bb a7bd 7597 55bd 42a6 523d
00000380: fe09 1cbd d09c bb3d d0ec 30bd 8083 93bd
00000390: 6aab 793d 6342 403d 0969 bfbc 0f00 b33b
000003a0: 0e8d 933d bd25 a93a 634a 753b c273 e93b
000003b0: b7e7 213d d060 253c 8a13 45bd 7816 30bd
000003c0: 47b9 90bd 9c66 4d3d 1793 bf3c 0014 9dbc
000003d0: 8ffc aabb 8c3d 923d db1b 0e3d f8a7 d7bc
000003e0: 6fe1 96bb 8a36 5ebd 161a 0fbc 9888 69bd
000003f0: 9f5d ef3c 6a0d 47bb 72f5 00bd 73d0 d6ba

planner.encoder.model.6.bias f4 [64]
-0.03661527 0.002271834 0.01305078 0.046127535 0.0033796567 0.021413146 -0.0077133253 0.028954018
0.03817819 0.0053809686 0.013750463 -0.001416609 -0.010562217 0.004441208 -0.023848776 -0.046827603
-0.0029309066 -0.048832506 0.044389967 -0.037761174 0.03849328 0.052102845 0.029411655 0.009235281
-0.022401549 0.0037233639 0.020414673 -0.043449722 -0.014768658 -0.055800457 0.021596776 -0.04307425
0.041926116 -0.018613819 -0.034792867 0.022285393 0.029098125 0.040271133 0.019962192 0.009210809
0.053470068 0.022601316 -0.056495372 -0.04366904 -0.003284775 -0.032877505 0.025945509 -0.015747378
-0.010951322 0.05806174 0.032663174 -0.0160574 -0.0156135345 -0.057254918 0.004000772 -0.0024567193
0.039996758 0.015277435 0.020823848 -0.05296954 0.01813894 0.0018657686 0.034503162 0.055523995
00000000: e5f9 15bd 0de3 143b f0d2 553c 3af0 3c3d
00000010: 3b7d 5d3b 9f6a af3c 10c0 fcbb fa30 ed3c
00000020: bc60 1c3d d652 b03b 9f49 613c 83ad b9ba
00000030: 260d 2dbc 8e87 913b 825e c3bc 4dce 3fbd
00000040: 7414 40bb 9804 48bd 41d2 353d 76ab 1abd
00000050: 21ab 1d3d cb69 553d b6f0 f03c 934f 173c
00000060: 7483 b7bc ae03 743b ac3c a73c 56f8 31bd
00000070: 3ef8 71bc 058f 64bd b9eb b03c a06e 30bd
00000080: b8ba 2b3d 027c 98bc f782 0ebd db8f b63c
00000090: 315f ee3c 58f3 243d c087 a33c efe8 163c
000000a0: 6e03 5b3d 6526 b93c b167 67bd 4fde 32bd
000000b0: 6145 57bb 90aa 06bd ad8b d43c a500 81bc
000000c0: 2c6d 33bc 26d2 6d3d d2c9 053d cf8a 83bc
000000d0: e9cf 7fbc 2284 6abd e818 833b e900 21bb
000000e0: a4d3 233d 354e 7a3c c696 aa3c 97f6 58bd
000000f0: 1d98 943c ce8c f43a 3053 0d3d 216d 633d

planner.encoder.model.7.weight f4 [64]
1.0177038 0.9988688 1.0337974 1.0316359 1.015534 0.9890527 0.97221416 0.95448005
1.0139636 1.0283234 0.98029745 0.9761537 0.97661644 0.99429744 0.99995637 1.0206501
1.0178509 0.988969 0.9833778 1.0163691 0.99570215 1.0179545 0.9879256 0.9542153
0.95549417 0.99434775 1.0054471 1.0246685 1.0177385 1.0038131 0.97745407 0.97880083
0.99535793 1.0043163 1.0028611 0.98532856 0.9913328 1.0080553 0.9522797 0.98364574
1.0138484 0.94148153 1.0403638 1.0501064 0.9776538 1.0442232 1.0074974 0.96885645
1.038498 1.0182264 0.9734291 1.0161445 1.0496678 0.9835818 0.9976478 0.9934121
1.0217038 0.99920535 1.0148709 1.022134 1.0069617 1.0297933 0.98459 1.0316663
00000000: 1e44 823f deb5 7f3f 7953 843f a50c 843f
00000010: 05fd 813f 8f32 7d3f 07e3 783f ce58 743f
00000020: 8fc9 813f 1aa0 833f c6f4 7a3f 35e5 793f
00000030: 8903 7a3f 478a 7e3f 24fd 7f3f aaa4 823f
00000040: f048 823f 132d 7d3f a6be 7b3f 6218 823f
00000050: 56e6 7e3f 554c 823f b1e8 7c3f 7447 743f
00000060: 449b 743f 938d 7e3f 7eb2 803f 5628 833f
00000070: 4145 823f f37c 803f 6e3a 7a3f b192 7a3f
00000080: c7cf 7e3f 708d 803f c15d 803f 7e3e 7c3f
00000090: fdc7 7d3f f507 813f 9ac8 733f 35d0 7b3f
000000a0: c9c5 813f ef04 713f a42a 853f e369 863f
000000b0: 8547 7a3f 1ba9 853f adf5 803f fa06 783f
000000c0: 81ed 843f 3e55 823f a632 793f 0611 823f
000000d0: 845b 863f 04cc 7b3f d965 7f3f 4150 7e3f
000000e0: 31c7 823f eccb 7f3f 4ae7 813f 49d5 823f
000000f0: 1fe4 803f 44d0 833f 170e 7c3f a40d 843f

planner.encoder.model.7.bias f4 [64]
-0.011973698 -0.06445663 -0.016005551 -0.044069547 -0.00019044569 -0.03712745 -0.08023523 -0.047098614
-0.013095938 0.034601808 -0.02430652 -0.06265049 -0.028192842 -0.02206675 0.002504697 -0.0100737605
-0.004268132 -0.060944602 -0.0270941 -0.043514986 -0.06919486 -0.010196183 -0.062410247 -0.054477897
-0.0500975 -0.067106254 -0.010721902 -0.014578003 -0.02993695 -0.03452802 -0.049923897 -0.042985477
-0.021581983 -0.026270224 -0.04662682 -0.02991296 -0.039725166 -0.009764291 -0.07366505 -0.012813159
-0.06478492 -0.06276226 -0.0151200015 -0.0024375059 -0.029953517 -0.014761575 -0.06560078 -0.07772094
-0.0024240434 0.016334835 -0.046230897 -0.024868904 -0.009167159 -0.047668654 -0.034765165 -0.052937217
-0.010966726 -0.02470484 -0.019703118 -0.053261943 -0.010299884 -0.0015027802 -0.059381112 -0.02235751
00000000: 542d 44bc d601 84bd 131e 83bc 4582 34bd
00000010: 60b2 47b9 f412 18bd 5e52 a4bd 7aea 40bd
00000020: 5890 56bc a0ba 0d3d 781e c7bc e64e 80bd
00000030: adf4 e6bc 54c5 b4bc d825 243b 6a0c 25bc
00000040: b0db 8bbb 0ca1 79bd 72f4 ddbc c53c 32bd
00000050: 09b6 8dbd e40d 27bc e3a1 7fbd 3724 5fbd
00000060: 0933 4dbd 016f 89bd ebaa 2fbc 94d8 6ebc
00000070: 563e f5bc 416d 0dbd 007d 4cbd 8a11 30bd
00000080: b3cc b0bc a734 d7bc c4fb 3ebd 060c f5bc
00000090: dbb6 22bd 68fa 1fbc b4dd 96bd 49ee 51bc
000000a0: f5ad 84bd 8089 80bd e2b9 77bc 90be 1fbb
000000b0: 1461 f5bc 88da 71bc b459 86bd 282c 9fbd
000000c0: b3dc 1ebb a2d0 853c 9c5c 3dbd dfb9 cbbc
000000d0: da31 16bc 3540 43bd eb65 0ebd b2d4 58bd
000000e0: c8ad 33bc ce61 cabc 6f68 a1bc 3229 5abd
000000f0: d8c0 28bc f0f8 c4ba 9c39 73bd 1927 b7bc

planner.encoder.model.7.running_mean f4 [64]
-0.28221768 -0.036376163 -0.0922519 -0.3458164 -0.61670417 -0.2035275 -0.07006683 0.110326536
-0.27071872 -0.17606883 -0.23347387 0.20697491 -0.44886482 0.09505916 -0.2707707 -0.0059221126
-0.4414047 -0.008530812 -0.33165467 -0.3084218 -0.096453354 0.40210125 -0.17349856 0.26983947
-0.51994324 0.18538769 0.2743216 -0.2176586 -0.20747183 -0.2544901 0.1361096 -0.2152418
0.18761346 -0.47207755 0.2285218 0.068587266 -0.30818442 0.15359683 0.25329837 -0.26618642
0.0102236 0.2928911 0.043428965 -0.18394923 -0.36831248 -0.09760881 -0.12021933 0.3585539
0.028760636 -0.6418405 0.24510704 -0.70423156 0.023100466 0.07511728 -0.3676287 0.09971807
-0.3974505 -0.46998656 -0.12292782 -0.712016 0.10526796 -0.02029815 -0.11231581 0.20570382
00000000: d67e 90be 2cff 14bd 90ee bcbd d90e b1be
00000010: 53e0 1dbf 8369 50be 337f 8fbd e1f2 e13d
00000020: a59b 8abe 634b 34be c613 6fbe 3bf1 533e
00000030: 9cd1 e5be 60ae c23d 75a2 8abe 480e c2bb
00000040: ccff e1be d2c4 0bbc a4ce a9be 76e9 9dbe
00000050: 5689 c5bd 37e0 cd3e 9ba9 31be 6628 8a3e
00000060: 001b 05bf 45d6 3d3e e173 8c3e e5e1 5ebe
00000070: 7f73 54be 874c 82be 5160 0b3e 5968 5cbe
00000080: be1d 403e 26b4 f1be 9e01 6a3e 7b77 8c3d
00000090: 59ca 9dbe 7d48 1d3e 53b0 813e 9649 88be
000000a0: e380 273c d2f5 953e 92e2 313d 305d 3cbe
000000b0: 7493 bcbe 21e7 c7bd 8d35 f6bd 6094 b73e
000000c0: 6d9b eb3c a94f 24bf 57fd 7a3e 8548 34bf
000000d0: 303d bd3c 17d7 993d d439 bcbe fd38 cc3d
000000e0: a27e cbbe 14a2 f0be 95c1 fbbd ae46 36bf
000000f0: ba96 d73d 4e48 a6bc d505 e6bd 06a4 523e

planner.encoder.model.7.running_var f4 [64]
0.14099976 0.2920014 0.34052035 0.17700846 0.33375543 0.26398602 0.22011867 0.24373914
0.19663455 0.15746637 0.2176039 0.2520278 0.24116547 0.33541974 0.32398552 0.18215458
0.19238217 0.1536692 0.35527736 0.1609587 0.14406009 0.24739036 0.11732987 0.16921844
0.2869235 0.26272315 0.140968 0.21021412 0.28648382 0.20085442 0.34740573 0.21157064
0.20061186 0.260059 0.17675708 0.2149007 0.22244368 0.21816353 0.18031333 0.28058955
0.30225453 0.1655505 0.25669867 0.14172906 0.36278507 0.26721334 0.29405376 0.13116743
0.20357758 0.31781617 0.19421539 0.13440646 0.13930827 0.18030298 0.20459528 0.32246956
0.1700389 0.18714888 0.20035219 0.16813557 0.21277776 0.16807851 0.18133256 0.19376355
00000000: 3e62 103e 3581 953e af58 ae3e b541 353e
00000010: fee1 aa3e 2d29 873e ca66 613e c196 793e
00000020: 915a 493e dd3e 213e 8fd3 5e3e ca09 813e
00000030: 15f4 763e 23bc ab3e 6ee1 a53e bb86 3a3e
00000040: d5ff 443e 755b 1d3e eae6 b53e 5cd2 243e
00000050: 7d84 133e e653 7d3e a54a f03d 9947 2d3e
00000060: a3e7 923e a683 863e ea59 103e 5f42 573e
00000070: 02ae 923e c8ac 4d3e 2adf b13e f9a5 583e
00000080: 326d 4d3e 7426 853e cfff 343e ee0e 5c3e
00000090: 47c8 633e 4366 5f3e 0fa4 383e 6fa9 8f3e
000000a0: 1bc1 9a3e 1286 293e 026e 833e 6c21 113e
000000b0: f7be b93e 30d0 883e 378e 963e c150 063e
000000c0: a476 503e cdb8 a23e 66e0 463e d9a1 093e
000000d0: d4a6 0e3e 58a1 383e 6d81 513e bb1a a53e
000000e0: ad1e 2e3e f5a3 3f3e 2029 4d3e bb2b 2c3e
000000f0: 6ae2 593e c61c 2c3e 3eaf 393e f469 463e

planner.encoder.model.9.weight f4 [128, 64, 3, 3]
0.033444043 -0.0910995 0.05405671 -0.0672559 -0.03867001 -0.050123967 0.026065355 0.0013003933
0.022355659 0.0064579966 -0.00042998928 -0.0018544513 -0.05439441 0.02768513 0.0030201296 0.048229028
0.030454246 -0.0033215194 0.018766807 -0.03594686 -0.03354371 0.010358453 -0.011877066 0.014732353
0.010725614 0.032410573 0.013576285 -0.028575946 0.013833857 0.034005735 -0.023311261 0.021477409
-0.020619512 0.044885557 -0.021503808 0.041329153 0.017872216 0.005889737 0.009752515 -0.0384609
-0.008230861 -0.019804759 0.011029253 0.01950867 -0.008060439 -0.00075165345 -0.014605416 -0.009131467
0.035022844 0.06434077 -0.0009149018 0.008385221 0.007845285 -0.057842813 0.026998594 -0.011264508
0.0077213035 0.0022488546 -0.024825504 0.02578997 -0.054624654 -0.014013624 -0.04176418 -0.011177469
0.05635273 -0.0359535 0.009170979 -0.015047905 -0.01694291 -0.007178244 0.019238614 0.01834575
0.008480388 -9.4930874e-05 0.041299712 0.0147575075 0.020640137 0.028056042 0.07361933 0.0024151148
0.0039524627 0.011859654 -0.017844336 0.064715326 -0.03232717 0.013896515 -0.037632156 0.054970767
0.007407474 -0.06923715 -0.026591357 -0.009234193 -0.047085606 0.051903505 0.026800025 -0.048093226
0.040097393 0.014059337 -0.05367196 -0.03732205 -0.036851566 0.10304888 0.015353711 0.04608582
-0.052882638 0.030663641 -0.054746382 -0.0057749897 -0.0041344455 -0.028482359 -0.060457584 0.0002286066
-0.006835711 -0.061574582 -0.04744489 0.0377008 0.010624248 -0.0038586154 -0.021177797 0.04092773
0.013358574 0.01410559 0.023324862 -0.03649491 0.0092048235 -0.047514733 -0.023462616 0.04370993
0.049373824 -0.028444242 -0.040824052 0.009714465 0.02560775 -0.017403778 -0.025090925 -0.034675863
-0.047784276 -0.087299824 0.03783798 -0.031631123 -0.017536383 0.0074636433 0.033807937 -0.038283583
0.018337822 0.0034035128 0.018810086 0.01720082 -0.061899446 0.053079687 0.012036632 0.010714568
-0.036752373 0.0122461 0.01376612 0.031951793 -0.032051917 0.043108765 -0.016196335 0.034168117
-0.03003833 0.009365228 0.040709462 -0.045563158 -0.013940978 -0.052496325 0.006062848 -0.020778788
0.038881246 1.2835022e-05 -0.016018562 -0.0270879 -0.0006997115 -0.011184862 -0.033229724 0.058346264
-0.019945515 -0.05730219 0.008826731 -0.0058104754 0.040757947 -0.025754534 -0.020006448 -0.01595094
-0.01807107 -0.0030639605 0.0024211952 -0.0035822834 0.039072167 -0.031176269 -0.031531226 -0.008029559
-0.047395542 0.0416282 0.034907103 0.008041113 -0.0044815787 -0.011843505 0.010081642 -0.022083595
0.004951845 0.035999592 -0.04636436 -0.021466805 -0.026936037 -0.005777278 0.0002454631 -0.0069318777
-0.009440449 0.02737329 -0.0031062483 -0.005949388 -0.05635488 -0.035980232 -0.0021796243 -0.048872527
-0.009119642 0.036341347 -0.057652976 -0.011662673 -0.026436936 0.01954005 -0.014020458 0.031070614
0.020251686 0.036404967 -0.053644456 -0.007438128 -0.024900092 0.04125232 0.005285454 0.020334244
0.035856597 -0.017747357 0.01903918 0.02314689 0.023682449 0.023783302 0.014366137 0.0050566536
-0.057525724 0.06469242 0.008963231 -0.010735678 0.025071759 0.03028323 -0.00069060276 0.002012935
-0.045299865 0.014207828 -0.020165129 -0.058056135 -0.0033649618 -0.03546143 -0.07666705 0.040363353
00000000: 9ffc 083d 6092 babd 926a 5d3d 76bd 89bd
00000010: 7264 1ebd ca4e 4dbd 0387 d53c f571 aa3a
00000020: 3723 b73c 9a9d d33b 2f70 e1b9 0f11 f3ba
00000030: accc 5ebd edcb e23c 5eed 453b cd8b 453d
00000040: 2f7b f93c d9ad 59bb d9bc 993c 043d 13bd
00000050: 2165 09bd 80b6 293c 0798 42bc f85f 713c
00000060: 7cba 2f3c f3c0 043d 116f 5e3c 1a18 eabc
00000070: 67a7 623c 9949 0b3d 42f7 bebc 64f1 af3c
00000080: 40ea a8bc ebd9 373d c128 b0bc c248 293d
00000090: c168 923c b2fe c03b 03c9 1f3c 2d89 1dbd
000000a0: bcda 06bc 973d a2bc 0ab4 343c a5d0 9f3c
000000b0: ee0f 04bc 9c0a 45ba 8e4b 6fbc 269c 15bc
000000c0: 1d74 0f3d 18c5 833d 05d6 6fba 2a62 093c
000000d0: 8389 003c 96ec 6cbd 282c dd3c c58e 38bc
000000e0: fd02 fd3b 8561 133b db5e cbbc 7d45 d33c
000000f0: 1abe 5fbd 6699 65bc eb10 2bbd b421 37bc
00000100: 1fd2 663d fa43 13bd e041 163c 7d8b 76bc
00000110: dccb 8abc 7a37 ebbb 4c9a 9d3c d449 963c
00000120: 53f1 0a3c a015 c7b8 e329 293d 79c9 713c
00000130: 8115 a93c c9d5 e53c bbc5 963d e746 1e3b
00000140: a983 813b ff4e 423c 492e 92bc 7889 843d
00000150: 7f69 04bd 35ae 633c 2d24 1abd 0729 613d
00000160: 65ba f23b 35cc 8dbd 1ed6 d9bc 034b 17bc
00000170: d6dc 40bd c598 543d ba8b db3c 67fd 44bd
00000180: 2a3d 243d 2259 663c 21d7 5bbd 02df 18bd
00000190: abf1 16bd 4b0b d33d 228e 7b3c 7cc4 3c3d
000001a0: 779b 58bd 5132 fb3c be3d 60bd 203c bdbb
000001b0: 3e7a 87bb d653 e9bc 5fa2 77bd 1eb6 6f39
000001c0: 1afe dfbb a135 7cbd 9355 42bd 276c 1a3d
000001d0: 5311 2e3c d3e0 7cbb 0f7d adbc d6a3 273d
000001e0: ecdd 5a3c 221b 673c c813 bf3c b07b 15bd
000001f0: d4cf 163c cf9e 42bd ac34 c0bc 2f09 333d
00000200: 353c 4a3d e603 e9bc 1f37 27bd 6b29 1f3c
00000210: 58c7 d13c 5e92 8ebc 7c8b cdbc 4708 0ebd
00000220: 72b9 43bd 40ca b2bd fffb 1a3d a38f 01bd
00000230: 76a8 8fbc 9491 f43b 317a 0a3d 3fcf 1cbd
00000240: 3339 963c 780d 5f3b 9c17 9a3c bce8 8c3c
00000250: 468a 7dbd 166a 593d 4b35 453c 288c 2f3c
00000260: a889 16bd dea3 483c 4b8b 613c e2df 023d
00000270: df48 03bd d192 303d 2dae 84bc def3 0b3d
00000280: f212 f6bc 9d70 193c f7be 263d 6fa0 3abd
00000290: b368 64bc 6306 57bd dbaa c63b 4738 aabc
000002a0: f141 1f3d 0056 5737 5c39 83bc 72e7 ddbc
000002b0: d86c 37ba b640 37bc e41b 08bd 7efc 6e3d
000002c0: c764 a3bc b4b5 6abd fe9d 103c cd65 bebb
000002d0: cef1 263d 2cfb d2bc 90e4 a3bc 8cab 82bc
000002e0: c809 94bc bacc 48bb eaac 1e3b bec4 6abb
000002f0: 230a 203d 6065 ffbc e326 01bd 698e 03bc
00000300: d421 42bd 5582 2a3d c0fa 0e3d dfbe 033c
00000310: 35da 92bb 430b 42bc 792d 253c a8e8 b4bc
00000320: 1643 a23b 4f74 133d 8ee8 3dbd 27db afbc
00000330: f7a8 dcbc 524f bdbb 80b1 8039 ce24 e3bb
00000340: 1dac 1abc f33d e03c 3392 4bbb 15f3 c2bb
00000350: 60d4 66bd 0260 13bd 07d8 0ebb 8f2e 48bd
00000360: 8d6a 15bc aada 143d 8725 6cbd cc14 3fbc
00000370: 4692 d8bc 7412 a03c 10b6 65bc cd87 fe3c
00000380: dde6 a53c 601d 153d 4aba 5bbd 8abb f3bb
00000390: 47fb cbbc 31f8 283d 9a31 ad3b 0094 a63c
000003a0: 5ede 123d e862 91bc 0ef8 9b3c 8c9e bd3c
000003b0: b201 c23c 33d5 c23c f25f 6b3c 49b2 a53b
000003c0: 18a0 6bbd 767d 843d 84da 123c b2e4 2fbc
000003d0: 4a63 cd3c 8914 f83c 9109 35ba 72eb 033b
000003e0: 5a8c 39bd f3c7 683c 5731 a5bc 45cc 6dbd
000003f0: b186 5cbb 0140 11bd 9d03 9dbd 0b54 253d

planner.encoder.model.9.bias f4 [128]
0.027605796 0.008429979 -0.038050845 0.032236487 -0.014275823 0.041235413 0.01802401 -0.009486659
-0.011455875 -0.03764409 -0.019078733 0.032291915 0.003460109 0.022010934 0.027650932 -0.039253145
0.008392528 -0.039339736 -0.04059147 0.025351178 -0.026968693 -0.024241684 -0.036454055 0.033523254
-0.027723165 -0.00030510273 0.023368442 -0.032950465 -0.038665067 -0.006398599 -0.014955318 0.029501837
-0.0036615895 -0.008202876 0.040299058 0.0018538862 -0.039287977 0.036103133 -0.025827292 -0.03146316
-0.009998195 0.0140246255 0.00031107236 -0.0012191108 0.01439703 0.015099987 0.03177105 0.012358715
0.027262077 -0.015001487 0.022488669 0.03876917 -0.025464239 -0.04130954 0.03348673 0.04008381
-0.021715116 -0.037077203 0.02180524 0.032131914 -0.0027376658 0.03361616 0.0117508145 -0.013023349
0.017394958 -0.027274773 -0.03231345 -0.02764578 0.014768928 -0.02329034 0.008866409 0.010178385
-0.0043532304 0.00053001265 0.017820261 -0.009119121 -0.01845623 -0.0076631308 0.0076817484 -0.016445503
-0.033555225 0.0128229335 -0.02651072 -0.033572316 -0.018358868 0.0027787944 -0.026319344 0.019474197
0.009743782 0.0126451235 0.015478299 -0.021246798 0.037360758 -0.004680931 -0.017174687 0.024264896
-0.036162764 -0.012896723 0.03995786 -0.021851331 0.009017159 -0.041590817 0.004484814 -0.030293843
-0.024819942 -0.012063922 -0.0036842935 -0.015591123 -0.002606558 0.019292986 -0.003370342 0.021610966
-0.037745345 0.030017938 0.012931991 -0.0024570592 -0.03285645 -0.03944444 -0.007158342 -0.034725506
0.0061792834 -0.01838407 0.027124997 -0.015879514 0.02680317 0.02267835 -0.0076771495 -0.024118185
00000000: 8d25 e23c e51d 0a3c 34db 1bbd 680a 043d
00000010: 24e5 69bc 77e6 283d 17a7 933c ef6d 1bbc
00000020: 6cb1 3bbc b030 1abd 014b 9cbc 8744 043d
00000030: ffc2 623b 4650 b43c 3584 e23c e8c7 20bd
00000040: d080 093c b422 21bd 3e43 26bd 46ad cf3c
00000050: 73ed dcbc 7f96 c6bc d950 15bd ae4f 093d
00000060: b11b e3bc 32f6 9fb9 2d6f bf3c 11f7 06bd
00000070: 435f 1ebd 57ab d1bb 2607 75bc d6ad f13c
00000080: 47f7 6fbb 5b65 06bc a010 253d 19fe f23a
00000090: 6eec 20bd e1e0 133d c293 d3bc 84df 00bd
000000a0: 78cf 23bc 8bc7 653c 6d17 a339 92ca 9fba
000000b0: 85e1 6b3c f065 773c 5c22 023d 357c 4a3c
000000c0: b854 df3c ccc8 75bc 283a b83c 6ccc 1e3d
000000d0: 619a d0bc 3134 29bd 6229 093d ec2e 243d
000000e0: e6e3 b1bc 44de 17bd e7a0 b23c c19c 033d
000000f0: 696a 33bb 19b1 093d 7d86 403c e35f 55bc
00000100: df7f 8e3c 586f dfbc 1c5b 04bd 6779 e2bc
00000110: 60f9 713c 62cb bebc 6a44 113c 3ec3 263c
00000120: 8ba5 8ebb 8cf0 0a3a ccfb 913c 5e68 15bc
00000130: 8531 97bc 001b fbbb 2db7 fb3b b8b8 86bc
00000140: 3471 09bd 4817 523c 022d d9bc 2083 09bd
00000150: 5665 96bc 6f1c 363b aa9b d7bc 5a88 9f3c
00000160: 62a4 1f3c 7e2d 4f3c b198 7d3c c40d aebc
00000170: 9807 193d 7f62 99bb eeb1 8cbc 2dc7 c63c
00000180: 681f 14bd c74c 53bc daaa 233d 9001 b3bc
00000190: b5bc 133c 225b 2abd 59f5 923b cb2a f8bc
000001a0: 3153 cbbc c2a7 45bc 3074 71bb e971 7fbc
000001b0: c9d2 2abb 530c 9e3c f5e0 5cbb 7b09 b13c
000001c0: dd9a 1abd 2ee8 f53c b4e0 533c 9d06 21bb
000001d0: 7c94 06bd 7e90 21bd 8690 eabb 553c 0ebd
000001e0: 967b ca3b 309a 96bc 3e35 de3c c115 82bc
000001f0: 5292 db3c f2c7 b93c 9990 fbbb 8093 c5bc

planner.encoder.model.10.weight f4 [128]
1.0991871 1.0129815 0.99479276 0.97781235 1.0367161 0.9995516 0.98708296 0.97964984
1.0172179 0.99879766 0.9732343 1.0051289 1.0521675 1.0070008 0.99842376 1.0122584
1.0264714 0.9899314 0.96872526 1.0036197 0.9979334 1.016728 1.0221171 0.9869144
0.93318784 1.0022651 0.9716466 0.97919714 0.9716371 0.9829977 1.0565436 0.99844044
1.0206362 0.98479456 0.9752205 1.0027106 1.0251578 0.97757834 0.9830216 1.0001339
0.98835963 1.0040765 1.0160674 0.97614783 1.0403026 1.0220745 0.96370894 1.0120733
0.9676122 1.0335139 1.036105 1.0624607 1.0669543 0.9912375 0.94250023 0.9964573
0.95722526 0.9821355 0.98473257 1.0324126 1.0336039 1.0397353 0.9894077 0.9741533
1.0445874 0.97606856 1.0258614 0.9574399 0.99450004 0.99571276 1.0278279 1.0254035
0.99891603 1.0148416 1.0028348 1.0220506 0.98361874 1.0153947 0.97550446 0.9778907
0.9987781 1.0279877 1.017456 0.9998159 1.0390196 0.9601671 0.9804155 1.0103867
1.0423235 1.0141317 0.97921956 1.0529879 1.018518 0.9901879 0.99760807 0.9881988
1.0066097 1.016467 1.0061315 1.029893 1.0000346 1.0299034 1.027596 0.98038805
0.9936146 1.0244589 0.98983413 0.9984763 1.0463821 0.9786104 0.95528775 0.9917551
0.999783 0.989974 1.0077941 1.0467067 0.99634916 1.000873 1.0113083 0.98660976
1.0302335 1.01896 1.0216848 0.9965998 0.9812021 0.996595 0.9576301 0.9987504
00000000: 2ab2 8c3f 61a9 813f bdaa 7e3f e951 7a3f
00000010: 1db3 843f 9de2 7f3f 78b1 7c3f 55ca 7a3f
00000020: 3234 823f 34b1 7f3f e225 793f 10a8 803f
00000030: 6dad 863f 67e5 803f b398 7f3f af91 813f
00000040: 6a63 833f 256c 7d3f 61fe 773f 9c76 803f
00000050: 9078 7f3f 2524 823f bcd4 823f 6ca6 7c3f
00000060: 66e5 6e3f 394a 803f d5bd 783f aaac 7a3f
00000070: 36bd 783f bda5 7b3f d23c 873f cb99 7f3f
00000080: 35a4 823f 7f1b 7c3f 0da8 793f d258 803f
00000090: 5f38 833f 9342 7a3f 4ea7 7b3f 6304 803f
000000a0: 2305 7d3f 9485 803f 7f0e 823f d3e4 793f
000000b0: a328 853f 56d3 823f a1b5 763f 9e8b 813f
000000c0: 6fb5 773f 2f4a 843f 179f 843f b6fe 873f
000000d0: f591 883f bec1 7d3f b247 713f d317 7f3f
000000e0: b70c 753f 3b6d 7b3f 6f17 7c3f 1926 843f
000000f0: 224d 843f 0c16 853f d349 7d3f 1c62 793f
00000100: 0ab5 853f a1df 793f 6d4f 833f c81a 753f
00000110: 8e97 7e3f 08e7 7e3f dd8f 833f 6c40 833f
00000120: f6b8 7f3f 54e6 813f e45c 803f 8ed2 823f
00000130: 70ce 7b3f 74f8 813f a9ba 793f 0b57 7a3f
00000140: ecaf 7f3f 1a95 833f 003c 823f eff3 7f3f
00000150: 98fe 843f 83cd 753f 83fc 7a3f 5a54 813f
00000160: db6a 853f 11cf 813f 22ae 7a3f 4fc8 863f
00000170: cc5e 823f f47c 7d3f 3e63 7f3f 99fa 7c3f
00000180: 96d8 803f 971b 823f ebc8 803f 89d3 833f
00000190: 2201 803f e0d3 833f 4488 833f b6fa 7a3f
000001a0: 875d 7e3f 7821 833f c565 7d3f 259c 7f3f
000001b0: d9ef 853f 3686 7a3f bd8d 743f aae3 7d3f
000001c0: c7f1 7f3f f06e 7d3f 66ff 803f 7cfa 853f
000001d0: bd10 7f3f 9b1c 803f 8d72 813f 7592 7c3f
000001e0: b1de 833f 486d 823f 91c6 823f 2a21 7f3f
000001f0: 1030 7b3f da20 7f3f 3f27 753f 1bae 7f3f

planner.encoder.model.10.bias f4 [128]
-0.013294181 -0.044539467 -0.014869471 -0.031938512 -0.0050307475 -0.057900157 -0.044325355 -0.061259765
-0.004127632 -0.035662264 -0.0335224 -0.054316834 -0.04391389 -0.03332365 -0.05268266 -0.08177669
-0.039604366 -0.009707417 -0.041418426 -0.06434591 -0.025696881 -0.03251009 -0.008389757 -0.048139464
-0.08012736 -0.03015728 -0.026673254 -0.04475096 -0.029675849 -0.028101081 -0.012748937 -0.09230412
-0.03356111 -0.03268632 -0.053757682 -0.048413284 -0.02080714 -0.038239673 -0.03813641 -0.07045144
-0.04936583 0.00013971503 -0.062001016 -0.05565223 -0.040800385 -0.0563627 -0.011786048 -0.045177497
-0.04703797 -0.021493891 -0.009924521 -0.026489269 0.03227016 -0.04917981 -0.077390365 -0.048374627
-0.08131631 -0.07962583 -0.039851997 -0.012110869 -0.028376276 -0.003428707 -0.08618194 -0.028880753
0.021309916 -0.06344265 -0.020864122 -0.08026969 -0.061089676 0.0017188224 -0.065182045 -0.004607662
-0.051961813 -0.07639354 -0.035685237 -0.03113776 -0.065131165 -0.0031515327 -0.029417412 -0.023682065
-0.042192757 -0.021151742 -0.022572052 -0.060519524 -0.051049087 -0.06844556 -0.005885414 -0.05109855
-0.040169545 -0.079929255 -0.082970105 0.0061662607 -0.039178908 -0.014984056 -0.025598656 -0.070103034
-0.07342987 -0.06257143 -0.05083932 -0.03208628 -0.054258306 -0.05640983 -0.04391018 -0.05419631
-0.03859437 -0.040700298 -0.07062013 0.010896688 -0.021482784 -0.027046368 -0.079691775 -0.042183805
-0.040317476 -0.012790611 -0.0002845135 -0.0188549 -0.044558104 -0.050470036 -0.053653993 -0.08598557
-0.017793419 -0.049036697 -0.0151411155 -0.056639645 -0.036311436 -0.014490235 -0.06432193 -0.019834446
00000000: d6cf 59bc 046f 36bd 159f 73bc f5d1 02bd
00000010: f8d8 a4bb b728 6dbd 818e 35bd 85eb 7abd
00000020: 1641 87bb 9812 12bd c94e 09bd 547b 5ebd
00000030: 0ddf 33bd 617e 08bd c6c9 57bd 8a7a a7bd
00000040: 3038 22bd dc0b 1fbc 5ea6 29bd cac7 83bd
00000050: 4482 d2bc 4d29 05bd 3175 09bc e32d 45bd
00000060: d019 a4bd 660c f7bc de81 dabc c84c 37bd
00000070: c41a f3bc 3d34 e6bc ebe0 50bc f109 bdbd
00000080: 6077 09bd 17e2 05bd 0431 5cbd 024d 46bd
00000090: bc73 aabc 34a1 1cbd ed34 1cbd d848 90bd
000000a0: d333 4abd 7880 1239 c7f4 7dbd 98f3 63bd
000000b0: 4e1e 27bd 93dc 66bd 451a 41bc 0a0c 39bd
000000c0: e3aa 40bd f513 b0bc 759a 22bc 0600 d9bc
000000d0: b72d 043d c570 49bd d77e 9ebd 7924 46bd
000000e0: 2a89 a6bd de12 a3bd d93b 23bd ab6c 46bc
000000f0: 5d75 e8bc 28b4 60bb 2880 b0bd 5497 ecbc
00000100: 2292 ae3c 38ee 81bd 3ceb aabc 6f64 a4bd
00000110: 2b39 7abd 1c4a e13a 2a7e 85bd dffb 96bb
00000120: e9d5 54bd 3774 9cbd af2a 12bd 9e14 ffbc
00000130: 7d63 85bd f289 4ebb c9fc f0bc e400 c2bc
00000140: 50d2 2cbd 6b46 adbc 06e9 b8bc 52e3 77bd
00000150: d918 51bd 302d 8cbd 6eda c0bb b74c 51bd
00000160: d288 24bd f3b1 a3bd 3bec a9bd 580e ca3b
00000170: 107a 20bd b07f 75bc 46b4 d1bc 2e92 8fbd
00000180: 6662 96bd 7325 80bd e43c 50bd e76c 03bd
00000190: f53d 5ebd fe0d 67bd 29db 33bd f3fc 5dbd
000001a0: 2115 1ebd 5bb5 26bd 49a1 90bd 0688 323c
000001b0: aafc afbc 5890 ddbc 7135 a3bd edc8 2cbd
000001c0: f023 25bd b68f 51bc c12a 95b9 9775 9abc
000001d0: 8f82 36bd abb9 4ebd 4ac4 5bbd 3419 b0bd
000001e0: 81c3 91bc b4da 48bd 7112 78bc f9fe 67bd
000001f0: 4dbb 14bd 7368 6dbc 37bb 83bd d97b a2bc
