neural-astar-lidia/model/mazes_032_moore_c8/lightning_logs/version_1/checkpoints/epoch=32-step=264.ckpt (torch, 89873 bytes, 15 tensors)

planner.astar.neighbor_filter f4 [1, 1, 3, 3]
1.0 1.0 1.0 1.0 0.0 1.0 1.0 1.0
1.0
00000000: 0000 803f 0000 803f 0000 803f 0000 803f
00000010: 0000 0000 0000 803f 0000 803f 0000 803f
00000020: 0000 803f

planner.encoder.model.0.weight f4 [32, 2, 3, 3]
-0.22613856 -0.04711142 -0.13118319 -0.044509377 -0.20663232 0.09710643 -0.20698944 -0.02860849
0.049644362 -0.19020262 0.19030133 0.04250404 0.15523732 0.13784504 -0.020104883 0.123689786
0.038712595 0.127275 -0.12316631 0.10927244 0.055767197 -0.068496175 -0.033211164 0.10545141
0.23638663 0.06601416 -0.11557246 -0.016963826 0.11022106 -0.10013656 0.018299108 -0.03030985
0.11177305 -0.03527011 0.046890732 0.1237837 0.15521236 -0.028712664 0.28388086 -0.13210016
0.031156 -0.17184533 0.017818287 0.08674428 -0.085404426 0.06742903 0.0015984386 -0.3008861
0.21661313 0.1530432 0.13328129 0.23686258 0.057367712 0.13891837 0.2087466 -0.040853087
-0.16325821 -0.11701292 -0.02312768 0.0436774 -0.043919466 0.13206291 0.11649075 -0.08575193
-0.03904846 -0.073939115 0.15405758 -0.098005645 -0.11956302 -0.010435181 -0.041363765 -0.07229032
-0.17313845 0.2554503 0.15335123 -0.070782594 -0.10720349 -0.023536172 0.18058851 -0.1341391
-0.1511293 0.09509047 -0.16025111 0.015733661 -0.19167644 0.21918043 0.13708404 -0.21955186
-0.19250938 0.1580164 0.018468564 0.04868983 -0.13626778 -0.14255983 0.0887621 -0.15470438
-0.018394426 0.14597675 0.1690526 0.018784402 0.08984679 0.11349513 -0.03165663 -0.0993454
0.17376228 0.27821407 0.13289039 -0.077771515 -0.1929029 -0.19159892 0.050221227 -0.07604287
-0.024857132 0.026211902 0.26024258 0.23393911 0.011297921 -0.10297794 0.10833118 -0.03946184
-0.3336049 0.068143845 0.24597922 -0.2874994 0.010815057 0.1080554 -0.16521926 -0.15989994
0.2101236 -0.011581982 0.1646821 0.02019446 0.1263531 -0.13193893 -0.05782839 0.18837593
0.09821405 -0.012816062 0.058678627 0.14349255 -0.14012331 0.15847442 0.020687776 0.020822765
0.13336758 -0.17861956 -0.0132950265 0.174024 0.055594854 -0.08040279 -0.11064167 0.15316887
0.07874237 0.13285397 -0.09113388 0.09179062 0.07894945 0.09282626 0.21585172 0.20340301
0.18624005 0.17230304 0.09072607 -0.09783265 -0.192958 -0.16154617 -0.16826744 -0.101961374
0.16441365 0.054728173 -0.049405254 -0.17657827 0.18514729 0.23178764 0.100398146 0.26291177
-0.17603269 -0.1600455 -0.19330642 -0.044503514 -0.19368623 0.22789861 -0.00018498876 0.13696961
-0.10429826 -0.04773805 0.030545846 -0.050544634 0.14753568 -0.1068486 0.06640709 -0.17557001
-0.061377976 -0.02255253 0.045936804 0.235326 0.07226004 0.03258681 -0.07909975 0.19291979
-0.08374166 0.138747 -0.21690245 0.15452306 0.13566606 0.08487726 0.07692869 0.08979832
-0.10574769 -0.03108205 0.09320936 -0.08014112 0.09931208 0.16048923 -0.16661432 -0.17469084
-0.15089762 0.013189812 -0.01556307 0.07765609 -0.043547872 -0.11187812 0.060900953 0.13645467
-0.15274678 0.21676789 0.025624098 0.28318065 -0.27419764 -0.30162105 0.11493816 -0.12689316
-0.17552736 0.063535884 0.12175012 -0.230168 0.22454704 -0.06932672 0.17282683 -0.10431303
-0.18235652 -0.14329895 -0.06240233 -0.13293158 -0.106634535 -0.16700569 -0.0009725631 -0.027902141
-0.0713752 -0.2593368 0.16785802 -0.19541703 0.17217563 0.04154463 -0.11057228 0.033644672
00000000: de90 67be e8f7 40bd e354 06be 774f 36bd
00000010: 6c97 53be bcdf c63d 0af5 53be 5a5c eabc
00000020: e357 4b3d 7ac4 42be 5ade 423e b718 2e3d
00000030: 88f6 1e3e 4027 0d3e ffb2 a4bc 1251 fd3d
00000040: 1991 1e3d 6154 023e 9e3e fcbd 3bca df3d
00000050: 256c 643d b947 8cbd 6e08 08bd e9f6 d73d
00000060: 560f 723e 6f32 873d 41b1 ecbd b9f7 8abc
00000070: 94bb e13d 6614 cdbd 03e8 953c 5d4c f8bc
00000080: 45e9 e43d 6477 10bd 7f10 403d 4f82 fd3d
00000090: fdef 1e3e d236 ebbc d558 913e 4445 07be
000000a0: de3a ff3c 39f8 2fbe a8f7 913c fca6 b13d
000000b0: 84e8 aebd 3b18 8a3d b382 d13a be0d 9abe
000000c0: d5cf 5d3e 5bb7 1c3e e47a 083e 1b8c 723e
000000d0: 68fa 6a3d 9e40 0e3e abc1 553e 9155 27bd
000000e0: 292d 27be 78a4 efbd 4376 bdbc 13e7 323d
000000f0: e6e4 33bd 803b 073e b492 ee3d b59e afbd
00000100: 47f1 1fbd 646d 97bd 45c1 1d3e 2fb7 c8bd
00000110: 75dd f4bd 52f8 2abc 0d6d 29bd f30c 94bd
00000120: 354b 31be 62ca 823e 1b08 1d3e 77f6 90bd
00000130: 818d dbbd eece c0bc 32ec 383e c35b 09be
00000140: a4c1 1abe cbbe c23d de18 24be e1e3 803c
00000150: d446 44be d670 603e c25f 0c3e 34d2 60be
00000160: 2e21 45be 0dcf 213e 634b 973c fd6e 473d
00000170: c889 0bbe 34fb 11be e7c8 b53d d36a 1ebe
00000180: e8af 96bc ee7a 153e 201c 2d3e bfe1 993c
00000190: 9801 b83d 2270 e83d 62aa 01bd 9a75 cbbd
000001a0: bdee 313e 1372 8e3e 6b14 083e ac46 9fbd
000001b0: 5688 45be 8232 44be c6b4 4d3d 5dbc 9bbd
000001c0: 2fa1 cbbc 58ba d63c 843e 853e bc8d 6f3e
000001d0: ea1a 393c 19e6 d2bd bddc dd3d bda2 21bd
000001e0: 43ce aabe 008f 8b3d fae1 7b3e 1f33 93be
000001f0: a331 313c 264c dd3d 3d2f 29be cfbc 23be
00000200: a42a 573e 5ac2 3dbc 6da2 283e da6e a53c
00000210: b562 013e 001b 07be 76dd 6cbd 9fe5 403e
00000220: 7324 c93d 76fa 51bc 0059 703d b6ef 123e
00000230: 7c7c 0fbe 1e47 223e 6979 a93c 8194 aa3c
00000240: 8391 083e 0ce8 36be 62d3 59bc 5933 323e
00000250: 6eb7 633d 38aa a4bd 1a98 e2bd 4dd8 1c3e
00000260: ae43 a13d df0a 083e 66a4 babd b8fc bb3d
00000270: 40b0 a13d b21b be3d 3c08 5d3e e148 503e
00000280: b6b5 3e3e 3570 303e 97ce b93d 7c5c c8bd
00000290: c896 45be 5c6c 25be 4d4e 2cbe 20d1 d0bd
000002a0: 0d5c 283e a62a 603d 2a5d 4abd efd0 34be
000002b0: 4097 3d3e bd59 6d3e 8b9d cd3d 5f9c 863e
000002c0: ea41 34be f8e2 23be 1ef2 45be 5149 36bd
000002d0: af55 46be 415e 693e 8bf9 41b9 c341 0c3e
000002e0: 539a d5bd f988 43bd 483b fa3c e407 4fbd
000002f0: 9813 173e 70d3 dabd 7100 883d a0c8 33be
00000300: 7967 7bbd 15c0 b8bc 3b28 3c3d 4df9 703e
00000310: 12fd 933d bf79 053d 0dff a1bd c48c 453e
00000320: bf80 abbd b213 0e3e ad1b 5ebe 4b3b 1e3e
00000330: 0bec 0a3e 21d4 ad3d ca8c 9d3d 2ee8 b73d
00000340: 3f92 d8bd c99f febc 8de4 be3d 0721 a4bd
00000350: 2264 cb3d 4a57 243e f29c 2abe 28e2 32be
00000360: e884 1abe 151a 583c 3ffc 7ebc 280a 9f3d
00000370: 415f 32bd 5b20 e5bd 4773 793d c6ba 0b3e
00000380: a769 1cbe 67f8 5d3e a1e9 d13c 0efd 903e
00000390: a263 8cbe 136e 9abe b364 eb3d 48f0 01be
000003a0: 72bd 33be 1a1f 823d 2058 f93d 29b1 6bbe
000003b0: a9ef 653e 2bfb 8dbd 84f9 303e 12a2 d5bd
000003c0: abbb 3abe f6bc 12be 9699 7fbd 371f 08be
000003d0: 3563 dabd 8a03 2bbe 9bf3 7eba 0893 e4bc
000003e0: 292d 92bd cbc7 84be f9e2 2b3e 671b 48be
000003f0: cf4e 303e b42a 2a3d b873 e2bd ffce 093d

planner.encoder.model.0.bias f4 [32]
-0.08514998 0.20019625 -0.20300288 -0.079392865 0.097327806 0.17231067 -0.1772519 -0.16302702
0.14218958 0.16028118 0.15278818 0.13551 -0.20091198 0.07773984 -0.007971463 0.036134552
-0.090338 0.22805282 -0.012803378 -0.16131163 0.122212015 -0.0049017956 -0.14697495 -0.1041686
-0.14866129 0.046353 0.050732587 -0.0652026 0.019451344 -0.12798038 -0.23378846 -0.0057222364
00000000: 1d63 aebd 3f00 4d3e fddf 4fbe ba98 a2bd
00000010: cd53 c73d 3572 303e 8681 35be 8ef0 26be
00000020: 259a 113e c020 243e 8174 1c3e 22c3 0a3e
00000030: dfbb 4dbe 1136 9f3d bd9a 02bc d301 143d
00000040: 2103 b9bd ae86 693e 42c5 51bc e02e 25be
00000050: 4b4a fa3d 3e9f a0bb 9a80 16be 5956 d5bd
00000060: aa3a 18be a5dc 3d3d f9cc 4f3d f188 85bd
00000070: 6d58 9f3c 4a0d 03be 3e66 6fbe 9981 bbbb

planner.encoder.model.1.weight f4 [32]
0.90256804 1.1219505 1.0329063 1.0151048 0.96524835 0.9518185 1.0307132 1.032351
1.0876923 0.94879276 1.0550135 1.0011699 0.89240927 0.96287197 1.1356673 1.0343937
1.0470406 1.0592071 1.0002747 0.9300989 0.95712996 1.0416964 0.96343976 0.9941673
1.0624329 0.92373747 1.0467703 0.9528651 1.0284575 0.990629 1.000042 0.98660725
00000000: b30e 673f 139c 8f3f 4636 843f f4ee 813f
00000010: 841a 773f 61aa 733f 69ee 833f 1424 843f
00000020: 8039 8b3f 15e4 723f af0a 873f 5626 803f
00000030: ef74 643f c77e 763f 8c5d 913f 0367 843f
00000040: 6d05 863f 1994 873f 0009 803f f61a 6e3f
00000050: 7806 753f 4f56 853f fda3 763f c081 7e3f
00000060: cdfd 873f 0f7a 6c3f 92fc 853f f8ee 733f
00000070: 7fa4 833f dd99 7d3f 6001 803f 4b92 7c3f

planner.encoder.model.1.bias f4 [32]
-0.066842936 -0.021449342 -0.03296558 -0.020891214 -0.026585152 -0.026518391 -0.03563052 -0.0031997592
-0.020034736 -0.06737873 -0.009823584 -0.044333015 -0.08991381 -0.008366708 -0.008122828 -0.014690734
-0.0014294549 0.022102138 -0.039711434 -0.063457035 -0.040359817 0.004232654 -0.056416016 -0.011274658
0.012789257 -0.08096554 -0.0047447393 -0.08161119 -0.034197286 -0.02345139 0.0067995014 -0.008688919
00000000: f3e4 88bd 88b6 afbc ea06 07bd 0d24 abbc
00000010: 1bc9 d9bc 193d d9bc 4ff1 11bd 0db3 51bb
00000020: e31f a4bc dcfd 89bd 19f3 20bc 8996 35bd
00000030: bb24 b8bd 8414 09bc 9c15 05bc 68b1 70bc
00000040: 8c5c bbba 8b0f b53c 75a8 22bd c3f5 81bd
00000050: 5650 25bd 13b2 8a3b 7b14 67bd 58b9 38bc
00000060: 088a 513c 43d1 a5bd c279 9bbb c523 a7bd
00000070: 7412 0cbd 211d c0bc 5ace de3b f85b 0ebc

planner.encoder.model.1.running_mean f4 [32]
-0.71853375 0.39319134 -0.073692165 0.009746433 0.02970234 0.19164446 -0.101672925 -0.1686321
0.3239966 -0.24045256 0.2720181 0.48034433 -0.34812927 -0.1571533 0.15987046 0.45347157
-0.095471025 0.36558178 0.29284525 -0.27107048 -0.20855837 0.37178618 -0.1040514 0.02840171
0.20134905 -0.18666342 0.387727 -0.49318117 0.36590147 0.09509608 -0.08517426 0.20344254
00000000: d4f1 37bf 6050 c93e ebeb 96bd 81af 1f3c
00000010: 5252 f33c 723e 443e e539 d0bd e5ad 2cbe
00000020: e2e2 a53e 3239 76be f545 8b3e b1ef f53e
00000030: 003e b2be cbec 20be 15b5 233e 6d2d e83e
00000040: 5086 c3bd 892d bb3e d0ef 953e c0c9 8abe
00000050: 5390 55be c25a be3e e718 d5bd b4aa e83c
00000060: 722e 4e3e b224 3fbe 2784 c63e 3e82 fcbe
00000070: 7057 bb3e bcc1 c23d d86f aebd 3e53 503e

planner.encoder.model.1.running_var f4 [32]
0.03347183 0.004726684 0.014281681 0.0045806947 0.009259876 0.0151595045 0.029428313 0.0067676217
0.0065249517 0.024665596 0.0029996496 0.011110337 0.009393912 0.01560665 0.0038796735 0.018866997
0.0012682122 0.007869006 0.016303528 0.027384046 0.00935159 0.03107602 0.01954001 0.009279255
0.015873222 0.012667099 0.017448293 0.026159126 0.010061278 0.009052443 0.039447982 0.014581396
00000000: c219 093d 4de2 9a3b b6fd 693c a719 963b
00000010: bcb6 173c 925f 783c a513 f13c edc2 dd3b
00000020: 43cf d53b 810f ca3c c595 443b 2208 363c
00000030: ece8 193c 09b3 7f3c 1f42 7e3b f68e 9a3c
00000040: 243a a63a 01ed 003c fa8e 853c 8254 e03c
00000050: 6937 193c 2393 fe3c 5f12 a03c 0408 183c
00000060: 8f08 823c aa89 4f3c b9ef 8e3c aa4b d63c
00000070: 0fd8 243c b350 143c 3594 213d cfe6 6e3c

planner.encoder.model.3.weight f4 [64, 32, 3, 3]
0.035516802 -0.04497452 0.019850286 -0.07179924 -0.013739741 0.011611209 -0.07590678 -0.060628727
-0.008950072 0.060166582 0.029788021 0.07714124 0.106518514 -0.03581783 -0.05105519 0.025304195
-0.023364259 -0.00594858 -0.032540623 -0.032136936 0.004181104 -0.01568706 -0.009186328 0.081227474
-0.0230522 0.043346718 0.077158734 0.04430449 -0.031704444 0.030393606 -0.023055686 -0.012152491
-0.030090202 -0.049682073 -0.0353179 -0.006559973 0.0032569205 0.036588583 -0.005449567 0.023583911
-0.004093725 0.035505984 -0.009475584 0.007767611 0.007986383 -0.058148958 -0.0584381 -0.021102943
-0.099410206 -0.021537602 -0.046987586 -0.04380251 -0.027503027 0.0765408 -0.047031622 -0.009014192
0.011255413 0.05496903 0.037140183 0.0032745216 0.029711042 -0.039060324 0.031644024 -0.0023153678
0.025064107 -0.07375849 0.01353746 0.019572925 -0.07962962 -0.05725783 0.0258427 -0.06341421
-0.016916787 0.012086006 -0.020083625 0.032253873 -0.040203318 0.02290362 -0.031912442 0.055059675
0.011816318 0.0067144576 -0.07684526 -0.0035456554 -0.041908313 0.0117897345 -0.06103347 0.048750818
-0.030356355 -0.009636398 0.03706043 -0.02036335 0.021994652 -0.0026482672 -0.0030741515 -0.030358132
-0.027279364 0.008198739 0.039243452 0.09239846 0.039661545 0.026506115 -0.019488635 -0.0154159255
0.042367842 0.0073291576 0.029752715 -0.06878597 -0.023458859 0.012863769 -0.04074685 -0.012073859
-0.034643695 0.0006573287 0.054964576 0.0035634735 0.06218807 -0.0431585 -0.033890627 -0.069900505
-0.06706949 -0.026178211 -0.0110800555 -0.031056335 -0.009760507 0.025684303 -0.043302737 -0.014139264
-0.0440176 0.019185768 -0.012105436 -0.11118107 -0.017042793 0.05299479 0.07805587 -0.041234996
-0.013364035 0.041768882 0.029287871 0.010920579 -0.0089220535 0.024860352 -0.04988815 -0.05026703
-0.03607627 -0.063021615 -0.022647955 -0.08422133 -0.028256979 -0.02537844 -0.038645037 -0.025174823
0.04558432 -0.013049162 -0.05474997 -0.06327295 0.05582926 -0.074994944 0.053162955 0.026675748
-0.032712378 0.07688091 0.00054514076 -0.06625325 -0.048057877 -0.036151677 0.054330673 0.0082072625
-0.049041897 -0.033546925 -0.057694506 0.015847113 -0.010359373 0.032933503 0.0024465288 -0.06590393
-0.0391599 -0.055394463 0.05322867 0.016467983 -0.0037786714 -0.060449667 -0.024013834 -0.09354644
-0.040728673 -0.022224689 -0.06678395 0.029642189 0.027791483 -0.014492635 0.020324804 0.06599258
-0.034938022 -0.026121616 -0.029357782 0.03177142 0.012912533 -0.015272465 -0.026335193 -0.021472655
0.010860432 -0.03214986 -0.0488769 -0.051732536 0.034714926 -0.050629858 0.044814393 -0.07681097
-0.05972751 -0.022593558 0.06414567 -0.0066094673 0.0012960527 -0.012244338 0.0018005122 0.019736456
0.07081387 0.015108031 0.0456511 0.04370294 0.0414135 -0.030655786 0.0057477136 -0.037652086
-0.013149944 0.009252848 0.014219453 -0.074920274 -0.05293509 0.021586142 0.035883136 0.014302586
0.019592728 0.008148777 0.004153404 -0.00035766885 0.037726965 -0.024511404 -0.040304482 -0.046183713
-0.04032222 -0.052960392 -0.038828168 0.07778639 0.047036085 0.02720842 -0.013892744 0.007301061
0.005722743 0.024980467 0.028664986 0.009693845 0.092577845 0.06932249 -0.108676665 0.056911204
00000000: 117a 113d 3437 38bd 119d a23c 7b0b 93bd
00000010: a71c 61bc f13c 3e3c 0475 9bbd d455 78bd
00000020: 53a3 12bc 3c71 763d 0206 f43c 3afc 9d3d
00000030: 6126 da3d b8b5 12bd 3f1f 51bd be4a cf3c
00000040: 6766 bfbc 4eec c2bb 5149 05bd 05a2 03bd
00000050: a401 893b 2682 80bc 4182 16bc 975a a63d
00000060: f8d7 bcbc 548c 313d 6605 9e3d a078 353d
00000070: 85dc 01bd 03fc f83c 47df bcbc 3e1b 47bc
00000080: ba7f f6bc 6e7f 4bbd 81a9 10bd 0bf5 d6bb
00000090: 0f72 553b e9dd 153d 4892 b2bb 0c33 c13c
000000a0: a724 86bb b96e 113d 7b3f 1bbc 7287 fe3b
000000b0: 51d9 023c 9a2d 6ebd ca5c 6fbd 14e0 acbc
000000c0: 9497 cbbd a06f b0bc 0e76 40bd 436a 33bd
000000d0: 074e e1bc 6cc1 9c3d 3ba4 40bd 43b0 13bc
000000e0: a068 383c 3527 613d 4e20 183d 5b99 563b
000000f0: 9264 f33c b8fd 1fbd 2a9d 013d 6dbd 17bb
00000100: 3e53 cd3c b10e 97bd 39cc 5d3c 6657 a03c
00000110: db14 a3bd 3087 6abd 12b4 d33c 4fdf 81bd
00000120: 1395 8abc 6204 463c 6a86 a4bc a31c 043d
00000130: 3cac 24bd 5fa0 bb3c 9fb6 02bd 4186 613d
00000140: 3b99 413c f404 dc3b 0c61 9dbd 3a5e 68bb
00000150: 0da8 2bbd bb29 413c 3bfe 79bd f0ae 473d
00000160: e4ad f8bc fce1 1dbc adcc 173d 0ad1 a6bc
00000170: 212e b43c 8d8e 2dbb b477 49bb 9eb1 f8bc
00000180: f978 dfbc 0154 063c bebd 203d 673b bd3d
00000190: 2574 223d 5a23 d93c a1a6 9fbc 1493 7cbc
000001a0: e789 2d3d 6e29 f03b f7bb f33c a9df 8cbd
000001b0: cb2c c0bc 8fc2 523c 2be6 26bd 6fd1 45bc
000001c0: 8ce6 0dbd 9550 2c3a 8922 613d 2a89 693b
000001d0: ebb8 7e3d f8c6 30bd e6d0 0abd ff27 8fbd
000001e0: bb5b 89bd b073 d6bc 1f89 35bc db69 febc
000001f0: 89ea 1fbc e367 d23c 365e 31bd 5fa8 67bc
00000200: cd4b 34bd 792b 9d3c e155 46bc e7b2 e3bd
00000210: 549d 8bbc 1111 593d c2db 9f3d 07e6 28bd
00000220: d3f4 5abc d915 2b3d 1eed ef3c 3aec 323c
00000230: ce2d 12bc f0a7 cb3c 8457 4cbd cde4 4dbd
00000240: b6c4 13bd 7a11 81bd 3488 b9bc 3c7c acbd
00000250: 2e7b e7bc 72e6 cfbc 424a 1ebd 6e3b cebc
00000260: a0b6 3a3d 27cc 55bc 8141 60bd 4095 81bd
00000270: 39ad 643d f396 99bd 66c1 593d 1987 da3c
00000280: 6afd 05bd bd73 9d3d c7e7 0e3a c9af 87bd
00000290: 56d8 44bd c813 14bd d789 5e3d c177 063c
000002a0: 28e0 48bd 8068 09bd 1351 6cbd ced1 813c
000002b0: 5cba 29bc 48e5 063d f155 203b a4f8 86bd
000002c0: 2266 20bd 4ee5 62bd 4e06 5a3d dde7 863c
000002d0: 96a3 77bb 129a 77bd a9b8 c4bc 4795 bfbd
000002e0: 1cd3 26bd 8d10 b6bc 06c6 88bd 2dd4 f23c
000002f0: f7aa e33c 8472 6dbc 3480 a63c 1e27 873d
00000300: 2c1b 0fbd 00fd d5bc bb7f f0bc c022 023d
00000310: 178f 533c 5c39 7abc e7bc d7bc 6ce7 afbc
00000320: f4ef 313c 92af 03bd 2533 48bd 7fe5 53bd
00000330: 3d31 0e3d 4161 4fbd 4c8f 373d 124f 9dbd
00000340: d5a4 74bd 2016 b9bc ce5e 833d 3b94 d8bb
00000350: 50e0 a93a 7a9c 48bc 2aff eb3a 59ae a13c
00000360: dd06 913d ad87 773c a6fc 3a3d db01 333d
00000370: 34a1 293d d821 fbbc 5157 bc3b 1339 1abd
00000380: dd72 57bc 4299 173c b5f8 683c cd6f 99bd
00000390: 77d2 58bd 6cd5 b03c 32fa 123d 6555 6a3c
000003a0: ee80 a03c 7382 053c 4719 883b 8085 bbb9
000003b0: 9787 1a3d 24cc c8bc 5016 25bd 222b 3dbd
000003c0: ea28 25bd ffec 58bd 490a 1fbd 794e 9f3d
000003d0: e9a8 403d 31e4 de3c 649e 63bc bd3d ef3b
000003e0: d985 bb3b d6a3 cc3c d5d2 ea3c efd2 1e3c
000003f0: 7499 bd3d f3f8 8d3d df91 debd b91b 693d

planner.encoder.model.3.bias f4 [64]
-0.04791409 -0.010255914 0.021762777 0.0060730753 -0.054579943 0.0010805267 -0.026302362 0.013408602
-0.040197372 0.0013194911 -0.0009605327 -0.003319554 -0.0062061106 0.0075250547 0.052910905 0.01754608
-0.020291725 0.015753595 -0.03713322 -0.052828804 -0.030055743 -0.02800788 0.029832792 -0.03303835
-0.032499935 0.0557055 -0.013718184 -0.04958692 -0.0027149853 -0.029285526 -0.0141474465 -0.041604556
-0.05133946 0.03371988 -0.049419947 0.006977112 0.030814879 0.039756846 0.035585865 0.0493796
-0.051879346 0.037030924 -0.007839779 -0.016708517 0.03179874 -0.040780533 -0.04558419 -0.014297467
-0.047034338 0.008941675 0.02683243 0.030116599 0.00032393605 0.040281568 -0.009127271 -0.044190466
0.004284791 0.008901847 0.048409097 0.035199482 0.024546057 -0.02767767 0.020028803 -0.04433746
00000000: 9141 44bd 6c08 28bc da47 b23c a600 c73b
00000010: 388f 5fbd 76a0 8d3a 0d78 d7bc c1af 5b3c
00000020: 00a6 24bd c6f2 ac3a 42cc 7bba e08c 59bb
00000030: a15c cbbb bc94 f63b 1bb9 583d ccbc 8f3c
00000040: d53a a6bc af0d 813c 0119 18bd 0463 58bd
00000050: 7637 f6bc c870 e5bc e663 f43c 3953 07bd
00000060: a71e 05bd 732b 643d 3cc2 60bc a71b 4bbd
00000070: e5ed 31bb 33e8 efbc b1ca 67bc 8a69 2abd
00000080: 5349 52bd db1d 0a3d 926c 4abd 42a0 e43b
00000090: 7c6f fc3c 13d8 223d 7cc2 113d 4342 4a3d
000000a0: 707f 54bd bdad 173d 6b72 00bc 4de0 88bc
000000b0: 653f 023d 7d09 27bd 7db6 3abd ec3f 6abc
000000c0: 14a7 40bd 1a80 123c afcf db3c 16b7 f63c
000000d0: f6d5 a939 49fe 243d 8d8a 15bc 1001 35bd
000000e0: 6f67 8c3b 0dd9 113c 9e48 463d 552d 103d
000000f0: d014 c93c 48bc e2bc 7213 a43c 329b 35bd

planner.encoder.model.4.weight f4 [64]
1.0237739 0.98030704 0.98664474 0.9665199 0.96659404 0.9702002 1.0225762 0.98465985
1.0122179 0.97771335 1.0282074 1.0228072 1.0265772 1.0094407 1.0277158 0.9869161
0.99103135 0.9861591 1.0102727 1.006256 0.9862305 1.0172222 0.94750464 1.0502975
0.9950934 1.090192 0.93401486 0.98945236 0.98519224 1.0206249 1.0133963 0.9944619
1.057054 0.9912992 0.98937976 0.9954095 0.9267467 0.97801363 1.0718454 0.99172634
0.94254434 1.055502 1.0550646 1.0435221 1.0169369 0.9761896 0.9843799 1.0012251
0.9821066 0.98530984 0.95804423 0.9597948 0.98933595 1.0289845 0.9774119 1.0106875
1.029442 0.9427359 1.0683755 1.0294607 0.97788453 1.0273114 1.0054767 1.0518342
00000000: 060b 833f 67f5 7a3f c094 7c3f d96d 773f
00000010: b572 773f 0a5f 783f c7e3 823f ab12 7c3f
00000020: 5b90 813f 6c4b 7a3f 4d9c 833f 59eb 823f
00000030: e266 833f 5a35 813f 318c 833f 89a6 7c3f
00000040: 3bb4 7d3f ec74 7c3f 9e50 813f ffcc 803f
00000050: 9a79 7c3f 5634 823f aa8f 723f 2670 863f
00000060: 71be 7e3f 698b 8b3f 991b 6f3f c04c 7d3f
00000070: 8f35 7c3f d6a3 823f f8b6 813f 0e95 7e3f
00000080: 8c4d 873f c9c5 7d3f fe47 7d3f 28d3 7e3f
00000090: 463f 6d3f 1a5f 7a3f 3b32 893f c7e1 7d3f
000000a0: 964a 713f b11a 873f 5b0c 873f 2292 853f
000000b0: fd2a 823f 90e7 793f 5200 7c3f 2528 803f
000000c0: 576b 7b3f 443d 7c3f 6342 753f 1db5 753f
000000d0: 1f45 7d3f c4b5 833f ab37 7a3f 355e 813f
000000e0: c1c4 833f 2457 713f 87c0 883f 5ec5 833f
000000f0: a456 7a3f f17e 833f 76b3 803f 81a2 863f

planner.encoder.model.4.bias f4 [64]
-0.019428514 -0.015420958 0.004260939 -0.06267902 -0.069966584 -0.03569107 -0.05462376 -0.11438809
-0.10084144 -0.057783406 -0.021078758 -0.018768566 -0.06600047 -0.047445953 -0.04997197 -0.028481433
-0.087319106 -0.04599521 0.0049927277 -0.0423199 -0.03515746 -0.05998942 -0.066286206 -0.004917325
-0.033668336 -0.060846575 -0.071081705 -0.014713909 -0.044866335 -0.093710266 -0.047098238 -0.039520588
-0.0451326 -0.042912845 -0.04750922 -0.008557749 -0.10256976 -0.03447066 -0.06529119 0.013695867
-0.08577178 -0.06761391 -0.08672297 -0.028359434 -0.0030980455 -0.10090451 -0.087262094 -0.08555447
-0.00834599 -0.058046043 -0.078942485 -0.048354212 -0.0017655727 -0.0399166 -0.080286354 -0.02015289
-0.03662147 -0.057747938 -0.03144107 -0.09395036 -0.083535254 -0.03834128 -0.11991028 -0.018614229
00000000: 8c28 9fbc 30a8 7cbc 599f 8b3b dc5d 80bd
00000010: a44a 8fbd cd30 12bd 2abd 5fbd 4e44 eabd
00000020: f585 cebd 4bae 6cbd 5cad acbc 89c0 99bc
00000030: 412b 87bd b056 42bd 69af 4cbd e551 e9bc
00000040: 5cd4 b2bd 7965 3cbd 099a a33b a257 2dbd
00000050: 4501 10bd 77b7 75bd 10c1 87bd 8321 a1bb
00000060: cfe7 09bd 423a 79bd 4993 91bd 9b12 71bc
00000070: c3c5 37bd 2beb bfbd 15ea 40bd 57e0 21bd
00000080: f6dc 38bd 61c5 2fbd 0799 42bd cd35 0cbc
00000090: 1810 d2bd 1b31 0dbd 63b7 85bd a164 603c
000000a0: 1da9 afbd 2979 8abd d09b b1bd 0b52 e8bc
000000b0: 9408 4bbb 06a7 cebd 78b6 b2bd 2f37 afbd
000000c0: 9fbd 08bc b0c1 6dbd 99ac a1bd 110f 46bd
000000d0: ca6a e7ba 977f 23bd 2c6d a4bd ac17 a5bc
000000e0: 6500 16bd 1a89 6cbd 5ac8 00bd 0c69 c0bd
000000f0: 8814 abbd bf0b 1dbd 8593 f5bd de7c 98bc

planner.encoder.model.4.running_mean f4 [64]
-0.37300426 -0.529571 -0.40141407 0.03780505 -0.14578342 0.12371329 -0.058757033 0.22167838
-0.50069416 -0.29717723 -0.5834472 -0.2628443 -0.48912743 0.15330179 0.33518147 -0.595554
-0.6369037 0.31159022 -0.66283154 -0.0868105 -0.40734187 -0.025640437 0.013673162 -0.32535306
0.021020072 -0.64918584 0.00090995943 -0.30251876 0.37722734 0.081365064 -0.91123337 -0.3407348
-0.22880864 -0.1209047 -0.24655665 -0.35579696 0.14197837 0.2410707 0.15054932 -0.7740359
0.11240303 -0.31959528 -0.19943003 -0.24814291 -0.0017199297 0.017540516 -0.1121692 0.061183263
-0.3685268 0.015487003 0.3691159 0.25813323 -0.79382485 -0.29911286 0.5060427 -0.5244872
-0.036961086 -0.71652555 -0.13061085 0.14123145 -0.06813949 -0.5902509 -0.40291974 0.12014647
00000000: 6afa bebe f791 07bf 2586 cdbe 78d9 1a3d
00000010: 4048 15be 655d fd3d 37ab 70bd a8ff 623e
00000020: 7e2d 00bf 9d27 98be cc5c 15bf 8793 86be
00000030: e96e fabe 25fb 1c3e e89c ab3e 3a76 18bf
00000040: 1f0c 23bf c188 9f3e 54af 29bf b4c9 b1bd
00000050: 1d8f d0be e50b d2bc 6605 603c ad94 a6be
00000060: 4932 ac3c 0b31 26bf 588a 6e3a bde3 9abe
00000070: f123 c13e baa2 a63d 9746 69bf cb74 aebe
00000080: d04c 6abe e29c f7bd 5979 7cbe 052b b6be
00000090: c762 113e 3ddb 763e 9a29 1a3e 3727 46bf
000000a0: 8f33 e63d fea1 a3be 6337 4cbe 2d19 7ebe
000000b0: 446f e1ba 21b1 8f3c f7b8 e5bd 4d9b 7a3d
000000c0: 8baf bcbe 33bd 7d3c c2fc bc3e 0a2a 843e
000000d0: 1b38 4bbf 5225 99be 048c 013f cb44 06bf
000000e0: 8264 17bd 386e 37bf dabe 05be fa9e 103e
000000f0: b88c 8bbd af1a 17bf 7f4b cebe 5a0f f63d

planner.encoder.model.4.running_var f4 [64]
0.3643634 0.51179504 0.37554666 0.2206262 0.28397298 0.40223393 0.1677373 0.19470425
0.391019 0.4950431 0.32358664 0.21333486 0.29338083 0.21797235 0.14946884 0.32771364
0.15689218 0.7571116 0.4255082 0.33035567 0.29302725 0.5181631 0.4072572 0.33245748
0.3140021 0.15998036 0.37895846 0.54871297 0.5233348 0.21554774 0.3035762 0.14978288
0.18480161 0.5892833 0.3764016 0.2195089 0.44109926 0.3610518 0.096947394 0.43531156
0.3947621 0.16368404 0.20417671 0.2629371 0.45090234 0.28672647 0.17580512 0.35658702
0.28516802 0.443469 0.25045237 0.48344406 0.91026086 0.27590677 0.41761255 0.33740246
0.24515854 0.5468851 0.27371734 0.22028437 0.19600973 0.4430871 0.18743907 0.25469032
00000000: d78d ba3e 0005 033f a747 c03e d6eb 613e
00000010: e864 913e 9bf1 cd3e 54c3 2b3e 8d60 473e
00000020: a433 c83e 4a76 fd3e 26ad a53e 7474 5a3e
00000030: 0336 963e 2534 5f3e 5c0e 193e 15ca a73e
00000040: 58a8 203e 11d2 413f 36dc d93e 6124 a93e
00000050: ab07 963e 56a6 043f 0484 d03e de37 aa3e
00000060: e2c4 a03e e4d1 233e d806 c23e 7478 0c3f
00000070: 45f9 053f 8cb8 5c3e 576e 9b3e af60 193e
00000080: a23c 3d3e 45db 163f b6b7 c03e f1c6 603e
00000090: c3d7 e13e c8db b83e 5b8c c63d 28e1 de3e
000000a0: 421e ca3e ca9c 273e b313 513e b19f 863e
000000b0: acdc e63e d0cd 923e 4206 343e 9392 b63e
000000c0: 8b01 923e 5e0e e33e 4b3b 803e fb85 f73e
000000d0: db06 693f a743 8d3e 50d1 d53e 04c0 ac3e
000000e0: d70a 7b3e a900 0c3f ae24 8c3e 3a92 613e
000000f0: c6b6 483e 50dc e23e 07f0 3f3e c566 823e

planner.encoder.model.6.weight f4 [1, 64, 3, 3]
-0.05348549 -0.041348193 0.06947997 -0.065535754 -0.016269788 -0.0029947837 -0.017199097 -0.00013791706
-0.058094017 -0.0008540885 0.019505853 0.03393273 0.048177708 0.006650377 -0.040549442 0.0036182548
0.002135339 0.047776323 -0.0155179575 0.04042722 0.007491929 0.027824147 0.064128034 -0.043109715
0.044737022 -0.03656355 -0.036764916 -0.05730314 0.015090573 0.04200854 0.005105382 0.00013239011
-0.022798067 0.047446486 -0.029477885 -0.02839194 -0.043254636 0.035169836 -0.037585787 0.033322617
-0.00591237 -0.002147715 0.015081009 -0.023286233 0.01938441 0.0055743665 -0.011231273 -0.019710643
-0.0069746026 -0.0078432895 -0.03473711 -0.025028637 0.004048156 -0.02315602 -0.04706629 0.03625297
-0.0014950586 0.07007428 -0.025378177 0.009298903 -0.035479702 -0.0029321588 -0.028041136 -0.07014012
-0.0037188695 0.013694556 -0.018846225 -0.0015741223 0.012038738 0.06275133 -0.012114813 0.023601567
0.026409972 0.0046774084 -0.032094408 0.009710688 -0.031389054 0.050515372 -0.082774326 0.00979523
0.0850577 0.026199931 0.006115149 0.06306425 -0.006756258 0.028674698 -0.02553998 0.024355724
-0.0022421351 -0.019988472 -0.014815251 0.021458324 0.010453239 0.063817576 0.013633321 -0.06061009
0.049840145 -0.05246547 -0.06228651 -0.044352524 0.045595206 -0.034868065 0.040141094 -0.029799106
-0.052670427 -0.0050648083 -0.0069843754 -0.055351432 0.0474419 -0.02203379 -0.0648802 -0.037946355
-0.031940255 0.022683 -0.07359983 0.016421806 0.019455109 -0.07213364 -0.050670955 -0.050887838
0.033384617 0.015146842 -0.0059418096 -0.032390814 -0.020773776 0.029711772 -0.031186728 0.026720274
-0.015845224 0.019740874 -0.050830305 0.044491142 -0.10864158 0.046062663 -0.023528488 -0.043703184
-0.0030283334 -0.008029138 0.016644556 -0.005337813 0.04275623 0.04155581 -0.009054558 -0.038721465
-0.02583849 0.047056228 -0.020204108 0.009363621 -0.02953083 -0.013118971 0.07190314 -0.046749026
0.017628089 -0.014817706 0.033883356 0.05000103 -0.012958165 0.017269861 0.010273365 0.035096306
0.0108808465 -0.03121834 0.048668798 0.044298068 0.015628293 0.031784143 0.018018007 -0.042720597
-0.053222694 -0.056055628 -0.045298535 -0.033265978 0.012852013 0.025547601 0.017667575 0.012121869
0.026060894 0.055946518 0.020904014 -0.031214146 0.028241947 0.018364035 -0.0060943696 0.041804075
0.018949958 -0.02755594 0.018936625 -0.024593277 -0.08642678 0.017097075 -0.056890186 0.038462505
-0.010084193 0.010003308 0.058973502 0.000737568 0.033986565 0.077622816 0.02693188 0.0080217095
-0.023270505 0.02153027 0.0038723212 0.01816471 -0.020167068 -0.034445565 -0.002574837 -0.06698921
-0.028605433 0.03716691 -0.08879014 0.031021602 -0.0016810345 0.03370486 0.011245796 -0.045218803
-0.00025427682 0.014266932 -0.07663582 0.013745736 0.021052375 0.0014979626 -0.039378718 -0.019087309
0.05979658 0.0023810207 -0.04787322 -0.110707186 -0.006706557 -0.0367934 0.0143164545 -0.10079742
0.021668479 0.02521333 0.0147870695 0.03393948 0.0074728215 -0.015888674 0.02161016 -0.016169177
0.009971318 -0.04024948 0.0011774551 0.013265846 0.020042483 0.025068544 0.061219007 0.010474159
0.0076281885 -0.0040445453 0.034436446 0.030405533 0.0019513957 0.019339906 0.054935243 0.016610507
00000000: 9a13 5bbd b95c 29bd 844b 8e3d 9c37 86bd
00000010: 3848 85bc 2244 44bb 1fe5 8cbc d49d 10b9
00000020: fef3 6dbd e9e4 5fba bdca 9f3c 0cfd 0a3d
00000030: fd55 453d 68eb d93b 2c17 26bd 3e20 6d3b
00000040: 0bf1 0b3b 1bb1 433d 083f 7ebc 0397 253d
00000050: db7e f53b 77ef e33c 8f55 833d d093 30bd
00000060: 2b3e 373d a9c3 15bd cf96 16bd b3b6 6abd
00000070: 733e 773c 2611 2c3d 0c4b a73b 33d2 0a39
00000080: 03c3 babc 3f57 423d 9b7b f1bc 3796 e8bc
00000090: c62b 31bd 3f0e 103d 8ef3 19bd 4c7d 083d
000000a0: 8ebc c1bb aec0 0cbb 5616 773c c5c2 bebc
000000b0: 0ecc 9e3c 2da9 b63b 6003 38bc 3778 a1bc
000000c0: 358b e4bb 2481 00bc 8048 0ebd db08 cdbc
000000d0: 65a6 843b b2b1 bdbc 95c8 40bd ff7d 143d
000000e0: d8f5 c3ba 1b83 8f3d e5e5 cfbc 6d5a 183c
000000f0: 2a53 11bd 7629 40bb 86b6 e5bc a0a5 8fbd
00000100: 47b8 73bb 225f 603c 6663 9abc c852 ceba
00000110: 203e 453c c583 803d 357d 46bc 1358 c13c
00000120: ba59 d83c f244 993b 6d75 03bd 9419 1f3c
00000130: cf91 00bd 35e9 4e3d 9685 a9bd 2c7c 203c
00000140: bb32 ae3d 3da1 d63c 9661 c83b d427 813d
00000150: 9a63 ddbb 33e7 ea3c 3839 d1bc a885 c73c
00000160: c9f0 12bb ddbe a3bc abbb 72bc 5ec9 af3c
00000170: 1044 2b3c cab2 823d 4b5e 5f3c 4942 78bd
00000180: 2e25 4c3d 08e6 56bd 2420 7fbd feaa 35bd
00000190: 0ac2 3a3d d1d1 0ebd fd6a 243d 411d f4bc
000001a0: f2bc 57bd b1f6 a5bb 30dd e4bb 2fb8 62bd
000001b0: 7052 423d 3580 b4bc e9df 84bd a36d 1bbd
000001c0: c9d3 02bd b3d1 b93c 82bb 96bd 0687 863c
000001d0: 5260 9f3c cdba 93bd 598c 4fbd c46f 50bd
000001e0: 4fbe 083d 762a 783c 83b3 c2bb 3bac 04bd
000001f0: c42d aabc 1a66 f33c 4f7b ffbc 7ae4 da3c
00000200: d8cd 81bc 9db7 a13c 7033 50bd 583c 363d
00000210: 7a7f debd 34ac 3c3d d1be c0bc 1c02 33bd
00000220: 0177 46bb a58c 03bc 2a5a 883c d2e8 aebb
00000230: 2821 2f3d 6d36 2a3d 9259 14bc 669a 1ebd
00000240: 3eab d3bc 08be 403d 1683 a5bc df69 193c
00000250: a4ea f1bc f4f0 56bc f441 933d e87b 3fbd
00000260: c868 903c f7c5 72bc 46c9 0a3d e1cd 4c3d
00000270: 7c4e 54bc 8679 8d3c 9e51 283c 25c1 0f3d
00000280: 9445 323c 9bbd ffbc ef58 473d e471 353d
00000290: e806 803c 1730 023d 809a 933c cbfb 2ebd
000002a0: 0a00 5abd 969a 65bd f58a 39bd e841 08bd
000002b0: 4091 523c 3449 d13c 97bb 903c ce9a 463c
000002c0: a87d d53c 2d28 653d e53e ab3c cfb4 ffbc
000002d0: a85b e73c 2c70 963c 47b3 c7bb c03a 2b3d
000002e0: f13c 9b3c ffbc e1bc fb20 9b3c d777 c9bc
000002f0: 8600 b1bd 2a0f 8c3c af05 69bd dc8a 1d3d
00000300: 2c38 25bc eae4 233c 338e 713d 5a59 413a
00000310: 7f35 0b3d b6f8 9e3d 3fa0 dc3c 7d6d 033c
00000320: c9a1 bebc 4060 b03c c5c6 7d3b 28ce 943c
00000330: 6835 a5bc cb16 0dbd 99be 28bb a431 89bd
00000340: f155 eabc 543c 183d 9bd7 b5bd 0421 fe3c
00000350: 2856 dcba 1b0e 0a3d 4a40 383c 5a37 39bd
00000360: 7550 85b9 dabf 693c 3ef3 9cbd cc35 613c
00000370: 0876 ac3c 4957 c43a 944b 21bd fd5c 9cbc
00000380: 42ed 743d e60a 1c3b b616 44bd 73ba e2bd
00000390: adc2 dbbb adb4 16bd 908f 6a3c e16e cebd
000003a0: 1882 b13c 2f8c ce3c 7745 723c 2004 0b3d
000003b0: 92de f43b f728 82bc ca07 b13c 3975 84bc
000003c0: bd5e 233c a4dc 24bd d654 9a3a fe58 593c
000003d0: 2230 a43c 8c5c cd3c c8c0 7a3d cf9b 2b3c
000003e0: e2f5 f93b 1b88 84bb 3b0d 0d3d 0615 f93c
000003f0: f9c5 ff3a b96e 9e3c c703 613d c212 883c

vanilla_astar.astar.neighbor_filter f4 [1, 1, 3, 3]
1.0 1.0 1.0 1.0 0.0 1.0 1.0 1.0
1.0
00000000: 0000 803f 0000 803f 0000 803f 0000 803f
00000010: 0000 0000 0000 803f 0000 803f 0000 803f
00000020: 0000 803f
