neural-astar-lidia/my_training/CNN_half_layers/version_0/checkpoints/epoch=7-step=64.ckpt (torch, 30737 bytes, 15 tensors)

planner.astar.neighbor_filter f4 [1, 1, 3, 3]
1.0 1.0 1.0 1.0 0.0 1.0 1.0 1.0
1.0
00000000: 0000 803f 0000 803f 0000 803f 0000 803f
00000010: 0000 0000 0000 803f 0000 803f 0000 803f
00000020: 0000 803f

planner.encoder.model.0.weight f4 [16, 2, 3, 3]
-0.25215316 -0.041016243 -0.16529736 -0.027766595 -0.19466704 0.1153886 -0.18678638 -0.0013980268
0.092626855 -0.04272229 0.18990617 0.03456614 0.1686992 0.1534448 -0.054964416 0.110288434
-0.0030389174 0.09995438 -0.1414816 0.096483596 0.051903762 -0.081988916 -0.08133857 0.102509126
0.2380514 0.09244604 -0.06357836 0.037515655 0.17472781 -0.1504042 0.07028342 -0.028707456
0.12014114 -0.0942076 0.008706203 0.07281389 0.15548354 -0.00934257 0.22619335 -0.19492134
0.007929006 -0.22902846 0.017187087 0.06686914 -0.14317964 0.060843103 0.015242961 -0.18767807
0.1586153 0.13478671 0.13857989 0.18377334 0.12947504 0.13315104 0.1989945 -0.061271433
-0.17146066 -0.1343336 -0.03780143 0.041142635 -0.066141605 0.10732436 0.116862826 -0.18368255
-0.105913565 0.006145186 0.13034862 -0.091430224 -0.104021706 -0.0037960447 -0.022702698 -0.031932157
-0.20654932 0.1800243 0.107719414 -0.06562875 -0.15052135 -0.019741323 0.16625744 -0.1676105
-0.12304484 0.071087405 -0.17115706 0.021885253 -0.17438862 0.2536691 0.16661264 -0.23037782
-0.07541671 0.117465384 0.012402878 0.07609382 -0.19374692 -0.116064645 0.14294657 -0.15166664
-0.04714938 0.11600959 0.13600822 0.028001217 0.102385536 0.100147 0.018423777 -0.068183325
0.17047635 0.27009988 0.09006252 -0.0944888 -0.18105392 -0.19133416 0.013274477 -0.10273681
-0.045724787 -0.032600444 0.23894906 0.2451355 -0.03434232 -0.033862554 0.089835234 -0.07624505
-0.29845625 0.08665369 0.2329726 -0.28589797 -0.080344 0.040745825 -0.1776488 -0.19025841
0.17557792 -0.04013409 0.18011414 0.0024144475 0.08936247 -0.15265198 -0.10050224 0.17573734
0.09149963 -0.100154415 -0.033301294 0.15931222 -0.19630606 0.15810472 -0.025383912 -0.031004718
0.120168656 -0.1753904 -0.039936904 0.19616869 0.08899379 -0.107731044 -0.07767736 0.18678834
0.060935136 0.099288605 -0.06379099 0.08498199 0.03153672 0.11079717 0.31573874 0.2229972
0.17638536 0.11902811 0.11134504 -0.04715868 -0.20899159 -0.20102996 -0.17227107 -0.14094256
0.045781065 0.07069275 -0.050235696 -0.14177334 0.27696642 0.15711029 0.10581881 0.20038943
-0.16029724 -0.100593045 -0.17048132 -0.034331694 -0.19763616 0.20141779 0.012734154 0.15001813
-0.11095158 -0.023101693 0.059048414 -0.049863268 0.18718849 -0.08085989 0.08239165 -0.13724667
-0.032604545 -0.05681448 0.11573646 0.18844076 0.080101945 0.042275902 -0.10185568 0.22381192
-0.04701844 0.094837464 -0.10262913 0.15921451 0.14747992 0.11588565 0.025315573 0.14095168
-0.110083826 -0.04479101 0.15042761 -0.060856238 0.010358683 0.14997908 -0.18766737 -0.18729678
-0.11660671 0.066200785 -0.033972565 0.097753875 -0.03879552 -0.1746756 0.01183442 0.1655758
-0.1265692 0.21264434 0.08806366 0.20001484 -0.25285485 -0.14696345 0.046071637 -0.18450543
-0.15686983 0.12252084 0.0899049 -0.21976559 0.15959589 -0.046479765 0.16801645 -0.1129882
-0.24338703 -0.16766633 -0.061432224 -0.2000991 -0.03812042 -0.09310585 -0.02170004 -0.07108485
-0.007699802 -0.25243008 0.12459205 -0.1692035 0.15584072 0.18318184 -0.07970108 0.02172354
00000000: 381a 81be a600 28bd b643 29be c576 e3bc
00000010: cc56 47be dc50 ec3d ee44 3fbe ff3d b7ba
00000020: 26b3 bd3d 91fd 2ebd c376 423e 3a95 0d3d
00000030: 7cbf 2c3e a220 1d3e 5e22 61bd e7de e13d
00000040: 9328 47bb e2b4 cc3d 8de0 10be 3199 c53d
00000050: 0a99 543d cee9 a7bd d694 a6bd 4ef0 d13d
00000060: bfc3 733e 5954 bd3d 5f35 82bd 04aa 193d
00000070: d9eb 323e 8f03 1abe c1f0 8f3d e62b ebbc
00000080: 8f0c f63d eaef c0bd 76a4 0e3c 731f 953d
00000090: 1437 1f3e 9411 19bc 3b9f 673e 7699 47be
000000a0: a9e8 013c 7086 6abe efcb 8c3c b0f2 883d
000000b0: af9d 12be 9e36 793d 9dbd 793c ae2e 40be
000000c0: 0d6c 223e 8705 0a3e e3e7 0d3e 142f 3c3e
000000d0: 1b95 043e bf58 083e 37c5 4b3e c1f7 7abd
000000e0: 6293 2fbe bf8e 09be acd5 1abd 2e85 283d
000000f0: 4075 87bd e0cc db3d c755 ef3d 4717 3cbe
00000100: 36e9 d8bd 8e5d c93b 1c7a 053e c53f bbbd
00000110: 5509 d5bd 10c7 78bb 02fb b9bc 4bcb 02bd
00000120: aa81 53be 4a58 383e ff9b dc3d 5e68 86bd
00000130: 4522 1abe 8eb8 a1bc 643f 2a3e 16a2 2bbe
00000140: effe fbbd 4696 913d cc43 2fbe b448 b33c
00000150: ee92 32be ebe0 813e 819c 2a3e 2ae8 6bbe
00000160: 1374 9abd b191 f03d 7135 4b3c 14d7 9b3d
00000170: 9865 46be 4db3 edbd 9660 123e 804e 1bbe
00000180: b51f 41bd 7096 ed3d bd45 0b3e cf62 e53c
00000190: 82af d13d df19 cd3d 76ed 963c b3a3 8bbd
000001a0: 5a91 2e3e 884a 8a3e b372 b83d 5883 c1bd
000001b0: 3366 39be 1aed 43be 317d 593c ad67 d2bd
000001c0: ea49 3bbd 0b88 05bd 10af 743e cd04 7b3e
000001d0: 88aa 0cbd 76b3 0abd 89fb b73d 5d26 9cbd
000001e0: 42cf 98be 7d77 b13d 5f90 6e3e 3861 92be
000001f0: 658b a4bd 18e5 263d 91e9 35be 1ad3 42be
00000200: b3ca 333e a563 24bd d76f 383e b53b 1e3b
00000210: ac03 b73d cd50 1cbe 1ed4 cdbd 7df4 333e
00000220: 2864 bb3d c21d cdbd f066 08bd be22 233e
00000230: 7504 49be 34e6 213e ecf1 cfbc 9bfd fdbc
00000240: fc1a f63d 8b99 33be e194 23bd 72e0 483e
00000250: 6042 b63d 18a2 dcbd 4f15 9fbd 7145 3f3e
00000260: 1f97 793d d357 cb3d daa4 82bd 0a0b ae3d
00000270: a62c 013d a0e9 e23d 82a8 a13e 6159 643e
00000280: 5d9e 343e 02c5 f33d de08 e43d 7629 41bd
00000290: e401 56be ccda 4dbe d467 30be 3f53 10be
000002a0: ed84 3b3d 5cc7 903d f2c3 4dbd 082d 11be
000002b0: 8bce 8d3e 85e1 203e 88b7 d83d e332 4d3e
000002c0: f624 24be ba03 cebd a892 2ebe 649f 0cbd
000002d0: 2261 4abe 7740 4e3e eaa2 503c 5a9e 193e
000002e0: 953a e3bd c33f bdbc c0dc 713d 6d3d 4cbd
000002f0: 57ae 3f3e df99 a5bd f4bc a83d 648a 0cbe
00000300: 588c 05bd 4db6 68bd 3d07 ed3d 9df6 403e
00000310: 7d0c a43d 7f29 2d3d b699 d0bd f42e 653e
00000320: 6896 40bd 253a c23d 392f d2bd 2109 233e
00000330: fa04 173e 7555 ed3d 9b62 cf3c a355 103e
00000340: a173 e1bd c776 37bd b209 1a3e 6444 79bd
00000350: 77b7 293c 1e94 193e e02b 40be baca 3fbe
00000360: 80cf eebd 4794 873d d126 0bbd 2f33 c83d
00000370: 0de8 1ebd 29de 32be 28e5 413c b48c 293e
00000380: 5b9b 01be 70bf 593e b85a b43d b1d0 4c3e
00000390: 3176 81be 967d 16be 9db5 3c3d feee 3cbe
000003a0: 7ca2 20be 35ec fa3d 0f20 b83d 3b0a 61be
000003b0: 1b6d 233e 9161 3ebd 810c 2c3e 5b66 e7bd
000003c0: 733a 79be b9b0 2bbe 5ba0 7bbd c7e6 4cbe
000003d0: 2824 1cbd 48ae bebd 48c4 b1bc ef94 91bd
000003e0: 9f4e fcbb 843e 81be 1e2a ff3d af43 2dbe
000003f0: b694 1f3e 0594 3b3e 523a a3bd 91f5 b13c

planner.encoder.model.0.bias f4 [16]
0.095278345 -0.01215479 -0.118463576 -0.07029179 -0.010556203 0.14624798 -0.017216027 -0.059658285
-0.032025944 0.038727555 0.1882041 0.17785746 -0.013796602 0.031234711 0.21380877 0.103509754
00000000: 4b21 c33d e224 47bc 089d f2bd 24f5 8fbd
00000010: edf3 2cbc 08c2 153e a008 8dbc 3f5c 74bd
00000020: a32d 03bd c9a0 1e3d 93b8 403e 4420 363e
00000030: 250b 62bc f0df ff3c b0f0 5a3e ecfc d33d

planner.encoder.model.1.weight f4 [16]
0.9791644 1.0562695 0.98809993 0.99599034 0.98969847 0.9956132 1.0203718 0.9866627
1.0532885 0.9718453 1.0244315 1.0194426 0.94992954 0.9737136 1.0290747 1.0648446
00000000: 85aa 7a3f d733 873f 1ef4 7c3f 39f9 7e3f
00000010: e15c 7d3f 82e0 7e3f 8b9b 823f ed95 7c3f
00000020: 28d2 863f dbca 783f 9220 833f 187d 823f
00000030: 952e 733f 4b45 793f b8b8 833f d44c 883f

planner.encoder.model.1.bias f4 [16]
-0.015201728 -0.01975495 0.015860623 -0.051792134 -0.0128335515 -0.016428065 -0.016244764 -0.019973934
-0.0053879423 -0.04488236 -0.013669644 -0.0054872306 -0.031626206 -0.026005125 0.006108407 0.018224861
00000000: ab10 79bc 22d5 a1bc 23ee 813c fd23 54bd
00000010: d143 52bc 2694 86bc bd13 85bc 60a0 a3bc
00000020: 568d b0bb 91d6 37bd a4f6 5fbc 3ace b3bb
00000030: 7b8a 01bd b308 d5bc 0829 c83b 4e4c 953c

planner.encoder.model.1.running_mean f4 [16]
-0.4628763 0.1526203 -0.2215567 -0.0776684 -0.25770593 0.13029121 -0.099106014 -0.2479777
0.18379131 -0.4679155 0.37838766 0.6279769 -0.15155697 -0.33130968 0.5275191 0.46055397
00000000: 1ffe ecbe 7f48 1c3e c2df 62be 9c10 9fbd
00000010: 08f2 83be 0f6b 053e 18f8 cabd deed 7dbe
00000020: ca33 3c3e 9f92 efbe 07bc c13e 18c3 203f
00000030: c031 1bbe 6ca1 a9be 7e0b 073f bbcd eb3e

planner.encoder.model.1.running_var f4 [16]
0.034142684 0.007814045 0.019729631 0.005203751 0.008809934 0.016885107 0.028693417 0.009817822
0.0123186475 0.027393814 0.006913312 0.014719117 0.013336959 0.021433938 0.0139486035 0.01446915
00000000: 33d9 0b3d 7b06 003c 09a0 a13c 3a84 aa3b
00000010: 8b57 103c a352 8a3c 750e eb3c eeda 203c
00000020: 27d4 493c fe68 e03c 1089 e23b 7428 713c
00000030: 4383 5a3c 3a96 af3c af88 643c 0410 6d3c

planner.encoder.model.3.weight f4 [32, 16, 3, 3]
-0.03424587 0.05429972 0.03618389 -0.0041647134 0.07677169 0.033929855 -0.0022681928 0.022696795
0.09143544 -0.015850782 -0.074992515 0.0608695 -0.0072194654 0.030072335 -0.021924345 -0.011293858
0.020549688 0.05653526 0.058518182 -0.051605444 0.00978998 0.0050764666 0.05730424 -0.06382511
-0.017762369 0.074608766 -0.046062294 0.024179736 -0.018144371 -0.022363728 0.032274086 -0.09256635
0.082038864 0.1314406 -0.059080485 -0.0015979578 0.046887845 0.009433793 0.010399398 0.06028923
0.027453553 -0.024400933 -0.10059256 -0.011408311 -0.08702018 0.00035735278 -0.045353964 0.030441802
0.029610831 0.005791004 -0.031206764 0.04667813 -0.014567429 -0.018890759 0.00081293395 3.145935e-06
-0.035544336 -0.020876754 -0.010126445 0.049071174 -0.07349455 -0.0020408742 -0.056149043 -0.09512222
0.025022753 -0.0042201234 0.087407105 0.060594976 0.08743373 -0.05223038 -0.045741983 0.017673839
0.034240395 0.02442545 -0.068182565 0.07514514 -0.050709344 0.0025500967 -0.008775464 -0.039750796
0.031165859 0.08122021 0.0271212 0.03876693 0.006245208 -0.058344983 0.034275647 0.08695011
0.0028255235 -0.09726765 -0.06472444 0.0138602145 -0.03092965 0.015128438 -0.055733595 -0.008715108
0.032591693 -0.093016244 -0.017540043 0.004846722 0.021694383 0.035873283 -0.042500675 0.039804697
-0.008142902 -0.0007477106 0.010098718 0.05806199 -0.021774158 -0.045019675 0.0069036256 -0.055607714
-0.04083493 -0.04407 0.030774659 -0.0069232984 -0.07320419 0.04832426 0.040486157 -0.04010984
-0.01832952 0.020629428 -0.04584318 0.08140886 -0.0069585834 -0.029933212 0.093073644 -0.07165213
-0.016199797 0.06715136 0.00047078263 -0.018666591 0.053226028 -0.006669611 0.06874954 -0.013904732
0.052947316 -0.0642361 -0.079784535 -0.047528565 -0.101410374 -0.020223288 0.029153977 -0.09700836
-0.06633246 -0.003998745 -0.03898458 0.067240596 0.00909005 0.05463468 0.021021154 -0.09726286
-0.076680936 -0.069310606 -0.048999567 0.014146391 0.01199896 0.010076925 0.029077146 0.02236158
-0.005482709 -0.035728507 0.008175923 0.029651843 0.013934292 0.052016295 -0.09271086 -0.019198956
-0.043995697 0.021746434 0.09676477 0.08373888 0.07241829 -0.0006381704 -0.040199455 -0.02015617
0.028549083 -0.044540167 0.019936565 0.027442742 -0.035027467 -0.0819497 -0.055051487 -0.049340248
-0.066026576 0.023346545 -0.120931305 -0.016688881 0.08858333 -0.02466997 -0.07176936 0.029699467
0.061501198 0.0048961802 0.067508705 0.06037879 -0.03171163 0.037811037 -0.047966134 0.0354605
-0.037034295 0.024477763 0.056106705 0.019524986 0.035948876 -0.019207915 0.00535139 -0.016114546
0.041735686 0.06800254 -0.058609694 0.044265594 0.022758337 -0.005484814 -0.07206361 0.08821716
-0.097213894 -0.06317307 0.016474511 0.022569371 0.0058657574 -0.02404792 0.033601243 0.036077365
-0.042577505 0.024312614 -0.0071804468 -0.03833687 -0.050725833 -0.063562214 0.08136263 -0.04925444
-0.03284231 -0.015302103 -0.04282617 0.022161866 -0.017233623 0.051521428 -0.0017571247 -0.087642506
-0.053752843 -0.085136965 0.008883903 0.050859217 0.032788843 -0.048382476 0.02299207 -0.077235416
0.06464428 0.00084959914 0.068157285 -0.017774418 -0.012360573 -0.018614538 0.06680869 -0.064051725
00000000: 6645 0cbd 6269 5e3d 8f35 143d 2678 88bb
00000010: 7a3a 9d3d 08fa 0a3d f6a5 14bb a1ee b93c
00000020: 8142 bb3d 80d9 81bc ad95 99bd 4c52 793d
00000030: 4491 ecbb 425a f63c af9a b3bc e009 39bc
00000040: d257 a83c 8491 673d c3b0 6f3d 3b60 53bd
00000050: 2766 203c 7d58 a63b dab7 6a3d bdb6 82bd
00000060: 6382 91bc 7bcc 983d d1ab 3cbd 9514 c63c
00000070: 81a3 94bc 2334 b7bc d531 043d 6d93 bdbd
00000080: fe03 a83d 5d98 063e 61fe 71bd 9172 d1ba
00000090: 780d 403d 3290 1a3c 3d62 2a3c d7f1 763d
000000a0: 46e6 e03c 77e4 c7bc 7903 cebd ede9 3abc
000000b0: a337 b2bd 145b bb39 14c5 39bd 1661 f93c
000000c0: 6a92 f23c 76c2 bd3b 54a5 ffbc 9131 3f3d
000000d0: 3aac 6ebc cbc0 9abc 131b 553a c01e 5336
000000e0: f096 11bd ba05 abbc 64e9 25bc dbfe 483d
000000f0: 5084 96bd 30c0 05bb 8afc 65bd 70cf c2bd
00000100: 84fc cc3c f648 8abb 7f02 b33d 7032 783d
00000110: 7510 b33d 86ef 55bd f25b 3bbd bac8 903c
00000120: a83f 0c3d e217 c83c 4da3 8bbd b2e5 993d
00000130: 9ab4 4fbd 861f 273b f7c6 0fbc bbd1 22bd
00000140: 8b4f ff3c c856 a63d 472d de3c 13ca 1e3d
00000150: 9aa4 cc3b 26fb 6ebd 9f64 0c3d e612 b23d
00000160: 6b2c 393b 4334 c7bd 3f8e 84bd f415 633c
00000170: 2d60 fdbc 45dd 773c e948 64bd d0c9 0ebc
00000180: de7e 053d 4d7f bebd 23b0 8fbc 40d1 9e3b
00000190: 6bb8 b13c ddef 123d 3015 2ebd 400a 233d
000001a0: ce69 05bc 0202 44ba 1875 253c 69d2 6d3d
000001b0: b85f b2bc 8d66 38bd cf37 e23b eac4 63bd
000001c0: 8742 27bd bf82 34bd 231b fc3c d6dc e2bb
000001d0: 14ec 95bd a9ef 453d d0d4 253d 374a 24bd
000001e0: ca27 96bc 0cff a83c 0fc6 3bbd b0b9 a63d
000001f0: d404 e4bb 7f36 f5bc 659d be3d 5abe 92bd
00000200: 70b5 84bc a786 893d 60d3 f639 aeea 98bc
00000210: 8903 5a3d c18c dabb 8fcc 8c3d acd0 63bc
00000220: 49df 583d 378e 83bd 1366 a3bd 50ad 42bd
00000230: 3eb0 cfbd 4fab a5bc 52d4 ee3c 52ac c6bd
00000240: 50d9 87bd e807 83bb 4cae 1fbd 70b5 893d
00000250: 6fee 143c 9dc8 5f3d 8e34 ac3c c031 c7bd
00000260: e50a 9dbd b8f2 8dbd c5b3 48bd 44c6 673c
00000270: 4997 443c b019 253c 3233 ee3c a22f b73c
00000280: 4ca8 b3bb 0e58 12bd 4ef4 053c 6ce8 f23c
00000290: a84c 643c 0a0f 553d 31df bdbd 2147 9dbc
000002a0: d534 34bd 9425 b23c 9c2c c63d 4a7f ab3d
000002b0: 0a50 943d e44a 27ba 2fa8 24bd 8d1e a5bc
000002c0: c4df e93c c06f 36bd 0252 a33c 9acf e03c
000002d0: f678 0fbd 3fd5 a7bd ab7d 61bd 0019 4abd
000002e0: f138 87bd 4141 bf3c d5aa f7bd 1fb7 88bc
000002f0: 2d6b b53d ad18 cabc d0fb 92bd 4c4c f33c
00000300: aee8 7b3d 2370 a03b 0142 8a3d c04f 773d
00000310: 0ee4 01bd bfdf 1a3d 2378 44bd 073f 113d
00000320: 46b1 17bd 9785 c83c 25d0 653d ddf2 9f3c
00000330: 213f 133d eb59 9dbc b75a af3b a702 84bc
00000340: 0af3 2a3d ea44 8b3d b810 70bd d74f 353d
00000350: b16f ba3c f4b9 b3bb 1696 93bd 33ab b43d
00000360: 1418 c7bd e260 81bd 8ef5 863c 67e3 b83c
00000370: 8a35 c03b 2500 c5bc 75a1 093d dcc5 133d
00000380: c065 2ebd 3f2b c73c f449 ebbb 1f07 1dbd
00000390: e4c5 4fbd e82c 82bd 73a1 a63d 06bf 49bd
000003a0: a885 06bd acb5 7abc 7e6a 2fbd cd8c b53c
000003b0: 872d 8dbc 2208 533d 524f e6ba ea7d b3bd
000003c0: f12b 5cbd 4a5c aebd ca8d 113c c151 503d
000003d0: 984d 063d b42c 46bd de59 bc3c 9a2d 9ebd
000003e0: 3864 843d a2b7 5e3a 0c96 8b3d a89b 91bc
000003f0: 0084 4abc 847d 98bc ffd2 883d 8d2d 83bd

planner.encoder.model.3.bias f4 [32]
-0.019142956 -0.06098072 0.026305884 -0.057047393 0.06843513 -0.027794506 0.03793518 0.034054406
-0.035161063 -0.03308672 -0.024129083 0.028592795 0.034715157 -0.069410354 -0.037461143 0.07326798
0.03431679 -0.006213863 -0.052921828 -0.018946875 -0.010721535 0.03359686 0.00565509 -0.03675505
-0.03996611 -0.011184692 0.052637808 0.034678362 0.02259899 0.012149598 -0.06930388 -0.041395236
00000000: b0d1 9cbc ebc6 79bd 707f d73c 87aa 69bd
00000010: b827 8c3d 4eb1 e3bc eb61 1b3d a27c 0b3d
00000020: 0c05 10bd f185 07bd 5baa c5bc 703b ea3c
00000030: 7b31 0e3d 0427 8ebd db70 19bd 860d 963d
00000040: c38f 0c3d a99d cbbb 8fc4 58bd 7a36 9bbc
00000050: 61a9 2fbc dc9c 093d 554e b93b 778c 16bd
00000060: 81b3 23bd 0040 37bc be9a 573d e60a 0e3d
00000070: 8421 b93c 1c0f 473c 31ef 8dbd 0d8e 29bd

planner.encoder.model.4.weight f4 [32]
0.97063226 0.95923 0.9718628 1.0048263 0.98382074 1.0091941 0.9741783 1.0139716
1.0271941 0.9666296 1.0172795 1.0369242 1.0027254 1.0271522 1.0170292 1.0087982
0.9879188 1.0030967 1.0043775 0.9994287 1.0103322 0.97208863 0.9837362 0.99370986
0.9902908 0.98960036 1.085771 0.99780476 1.0488446 0.97346157 1.0392361 1.0117018
00000000: 5b7b 783f 1990 753f 00cc 783f 269e 803f
00000010: addb 7b3f 462d 813f c063 793f d2c9 813f
00000020: 197b 833f 0a75 773f 3736 823f efb9 843f
00000030: 4e59 803f b979 833f 032e 823f 4d20 813f
00000040: 3fe8 7c3f 7965 803f 718f 803f 8fda 7f3f
00000050: 9152 813f cdda 783f 23d6 7b3f c563 7e3f
00000060: b383 7d3f 7356 7d3f 8bfa 8a3f 2270 7f3f
00000070: 8a40 863f c734 793f b005 853f 727f 813f

planner.encoder.model.4.bias f4 [32]
-0.031203011 -0.029299716 -0.032442227 0.008013683 -0.036262576 -0.031786732 -0.014584974 0.006629259
-0.011975372 -0.031873506 -0.016042454 0.0018556716 -0.008180298 -0.052110117 0.014004704 -0.061553176
-0.030108348 -0.03914146 -0.04729908 -0.025305673 -0.034796752 -0.04184129 -0.0239324 -0.02688047
-0.020176122 -0.00090160506 -0.067795426 -0.06168287 -0.03290475 -0.008495966 -0.07192299 -0.0081232255
00000000: 759d ffbc f505 f0bc 24e2 04bd d34b 033c
00000010: 1188 14bd ce32 02bd d1f5 6ebc 413a d93b
00000020: 5a34 44bc cb8d 02bd 776b 83bc 023a f33a
00000030: a806 06bc 6b71 55bd fc73 653c 2f1f 7cbd
00000040: c8a5 f6bc cc52 20bd aebc 41bd d84d cfbc
00000050: 0a87 0ebd c661 2bbd e10d c4bc 6e34 dcbc
00000060: 6548 a5bc b159 6cba 54d8 8abd 2da7 7cbd
00000070: 22c7 06bd aa32 0bbc 5c4c 93bd 4717 05bc

planner.encoder.model.4.running_mean f4 [32]
-0.027701573 -0.21436909 -0.2653932 -0.32514095 0.0016622214 -0.022876251 -0.50178784 0.30956623
-0.04821103 -0.36788198 0.19081049 0.24205056 0.113376245 0.20864432 -0.15161076 0.12695421
-0.046482157 -0.07986587 0.119357504 -0.37611067 0.2517351 -0.37530765 -0.20261477 0.0126306955
-0.31265342 -0.02450069 -0.121087044 -0.056289583 -0.40462443 0.25139165 -0.27456957 0.34096295
00000000: 69ee e2bc 9283 5bbe 9ee1 87be e078 a6be
00000010: e5de d93a fa66 bbbc 2b75 00bf 777f 9e3e
00000020: ee78 45bd 075b bcbe d363 433e 1adc 773e
00000030: ce31 e83d dba6 553e da3f 1bbe 4900 023e
00000040: 1364 3ebd b890 a3bd b571 f43d 9491 c0be
00000050: 6ce3 803e 5328 c0be 3f7a 4fbe faf0 4e3c
00000060: 1c14 a0be acb5 c8bc 7cfc f7bd e88f 66bd
00000070: ef2a cfbe 68b6 803e 6294 8cbe b292 ae3e

planner.encoder.model.4.running_var f4 [32]
0.16637388 0.13709126 0.19887213 0.24856868 0.27906907 0.16553274 0.21671659 0.1576598
0.08353011 0.12933178 0.28804594 0.13731542 0.16660352 0.13222581 0.12830032 0.09782216
0.31241247 0.13288574 0.092589535 0.11349989 0.0775751 0.12611291 0.28482217 0.21943656
0.17977637 0.17854238 0.067081355 0.115306035 0.09900419 0.1900856 0.12841985 0.19615568
00000000: ea5d 2a3e a761 0c3e 23a5 4b3e ca88 7e3e
00000010: 24e2 8e3e 6a81 293e f4ea 5d3e 9271 213e
00000020: d611 ab3d 8d6f 043e c27a 933e 6a9c 0c3e
00000030: 1d9a 2a3e 3466 073e 2961 033e fc56 c83d
00000040: 87f4 9f3e 3313 083e 959f bd3d a172 e83d
00000050: b2df 9e3d be23 013e 36d4 913e fab3 603e
00000060: 4c17 383e d0d3 363e f361 893d 9225 ec3d
00000070: b5c2 ca3d cda5 423e 7e80 033e 09dd 483e

planner.encoder.model.6.weight f4 [1, 32, 3, 3]
-0.01765802 -0.05088833 0.015811801 0.024268659 -0.06689135 0.025244074 -0.023231933 -0.034219656
-0.01742344 -0.021795008 0.060056 -0.05786954 0.023137301 -0.056628272 -0.013329467 0.01980727
0.02455453 0.009810116 -0.059626337 -0.0081041735 -0.003873488 -0.015863553 0.03484134 0.058906086
-0.036913007 -0.0034219886 -0.025130063 0.009557896 -0.024793768 0.07821463 -0.054846164 0.00044155325
-0.0455662 0.055555653 0.018480193 0.023797646 -0.047099687 0.04529943 0.046030346 0.044626493
0.013031034 -0.027269416 0.010180285 0.02983888 -0.011525823 -0.048579633 0.047293022 -0.016175546
0.06572401 -0.023833409 -0.0028690454 0.029934777 -0.045124494 0.017530601 -0.0168597 -0.054754194
-0.0038657999 -0.023978237 -0.009527904 -0.0058185966 -0.033830788 0.02521235 0.008343634 0.002209266
0.02040198 0.063069515 -0.0045311507 -0.03403863 0.081000715 -0.049889114 0.027134627 0.05285476
0.06093927 0.03309512 -0.07934755 -0.017898738 -0.007896922 0.050336868 -0.056050014 0.01742692
-0.013293692 0.039204247 -0.050620407 0.03338459 -0.049917497 -0.03775377 0.008758125 -0.010304728
0.022882404 -0.06492597 0.014614085 0.060923614 -0.007741549 -0.009877296 0.06978923 0.05339166
0.069556236 0.026876042 0.059346553 0.026330799 0.053088024 0.052496165 0.100308165 -0.01647117
-0.030532625 -0.045720223 0.04882825 -0.028266061 -0.029856745 -0.032433975 0.00090484344 -0.009168587
0.06746523 -0.009917745 0.006899245 -0.044227913 -0.05999912 -0.02872791 -0.065548174 0.07776364
-0.0393963 0.053580016 0.051550396 0.049208086 0.017459976 0.001147738 -0.027848206 -0.04002572
-0.0004695739 -0.023184923 -0.014687264 -0.026179384 0.09459321 0.053873457 0.024793318 0.0064066723
-0.041338064 -0.077129625 -0.06787934 -0.00023935543 -0.0155899245 -0.012435505 -0.03712351 -0.03874093
0.01127321 0.00089393975 -0.012239369 0.044663787 -0.008975831 0.048892744 0.028281009 0.03458337
0.00503549 0.02328007 0.056192752 -0.00490077 0.031001244 0.014199382 -0.073809 0.023944605
0.0019129871 -0.05778575 -0.06763462 -0.039239194 0.045717433 0.02387735 -0.05529119 0.020019034
-0.0131034665 0.06353453 -0.06387858 -0.035679583 -0.018787641 0.020113148 0.0034200796 0.00399413
-0.08894984 -0.055858128 -0.020979252 0.06687888 -0.030695101 -0.03471672 -0.106140345 0.03932617
-0.02946424 0.036008734 -0.064527445 -0.015050823 0.0289912 -0.034304544 -0.048876237 0.06242246
-0.037610643 -0.0011069186 -0.011207862 -0.028701495 0.07733615 -0.031205736 -0.0062580807 0.06158101
-0.033622753 -0.008393967 0.020571385 0.0029568372 0.032409206 -0.019308684 0.0017761912 0.007918298
-0.0038308254 -0.05339156 0.073059335 0.019546958 0.013962754 -0.02845836 -0.040899627 0.0050001037
0.010130618 0.04721186 -0.041477833 0.041907813 0.04776494 -0.04248513 -0.0051025995 0.06165629
-0.04756919 0.037540335 -0.06945192 -0.04879813 0.012928819 0.032656614 0.014810175 0.00053150114
0.054245673 0.013763802 0.033527594 0.00043322623 -0.02570688 0.06623365 -0.039619923 -0.034755614
-0.116856 0.02648562 0.03472621 -0.046049792 0.021584954 0.066052064 0.017008565 -0.037633408
-0.01867371 -0.015762359 0.014992493 -0.039804406 0.056751676 0.028832577 -0.07662412 0.019065604
00000000: 8da7 90bc 4870 50bd c087 813c 11cf c63c
00000010: 55fe 88bd a9cc ce3c e550 bebc e929 0cbd
00000020: 9abb 8ebc 728b b2bc 48fd 753d 9c08 6dbd
00000030: 708a bd3c 0cf3 67bd d663 5abc db42 a23c
00000040: 9526 c93c 9cba 203c bf3a 74bd 5ec7 04bc
00000050: 58da 7dbb 48f4 81bc cbb5 0e3d 8247 713d
00000060: 1832 17bd 7143 60bb 90dd cdbc b998 1c3c
00000070: 4d1c cbbc fe2e a03d 5fa6 60bd 4680 e739
00000080: a0a3 3abd 538e 633d c663 973c 48f3 c23c
00000090: 9aeb 40bd e58b 393d 518a 3c3d 45ca 363d
000000a0: 1e80 553c 1c64 dfbc 36cb 263c ab70 f43c
000000b0: ced6 3cbc 70fb 46bd 54b6 413d 9482 84bc
000000c0: 4f9a 863d 483e c3bc 9806 3cbb c739 f53c
000000d0: 76d4 38bd 569c 8f3c 5b1d 8abc ef45 60bd
000000e0: 5c59 7dbb 026e c4bc ed1a 1cbc eda9 bebb
000000f0: 2792 0abd 218a ce3c bdb3 083c 55c9 103b
00000100: 0e22 a73c 972a 813d 0c7a 94bb 176c 0bbd
00000110: b4e3 a53d 8758 4cbd 7049 de3c 3c7e 583d
00000120: 759b 793d c08e 073d f880 a2bd 60a0 92bc
00000130: 1762 01bc 082e 4e3d b394 65bd e6c2 8e3c
00000140: c9cd 59bc a294 203d 5857 4fbd 48be 083d
00000150: 4a76 4cbd b2a3 1abd 3d7e 0f3c 29d5 28bc
00000160: e173 bb3c e8f7 84bd ea6f 6f3c 0a8b 793d
00000170: d2ac fdbb 62d4 21bc a8ed 8e3d 37b1 5a3d
00000180: 8073 8e3d 252b dc3c 5f15 733d b0b3 d73c
00000190: d472 593d 3806 573d 5e6e cd3d 8cee 86bc
000001a0: 8e1f fabc 2145 3bbd 2200 483d 3a8e e7bc
000001b0: 2296 f4bc 7dd9 04bd 0433 6d3a d737 16bc
000001c0: 362b 8a3d 0a7e 22bc 1013 e23b 5428 35bd
000001d0: a3c1 75bd cb56 ebbc 1f3e 86bd 8b42 9f3d
000001e0: 045e 21bd b876 5b3d 8226 533d 6b8e 493d
000001f0: 3908 8f3c b26f 963a ec21 e4bc 02f2 23bd
00000200: 2431 f6b9 4fee bdbc daa2 70bc 2676 d6bc
00000210: 16ba c13d 6aaa 5c3d 5b1b cb3c 10ef d13b
00000220: 1a52 29bd 23f6 9dbd 5304 8bbd 7cfb 7ab9
00000230: e26c 7fbc 4abe 4bbc d20e 18bd cfae 1ebd
00000240: 45b3 383c 4857 6a3a a287 48bc 60f1 363d
00000250: 5d0f 13bc c243 483d 93ad e73c 4ba7 0d3d
00000260: c000 a53b d8b5 be3c 5f2a 663d a396 a0bb
00000270: 52f6 fd3c 86a4 683c 2c29 97bd 7a27 c43c
00000280: 32bd fa3a c0b0 6cbd 0584 8abd 47b9 20bd
00000290: 3442 3b3d 6f9a c33c 0479 62bd f5fe a33c
000002a0: ecaf 56bc 641e 823d c6d2 82bd c124 12bd
000002b0: 8ae8 99bc 54c4 a43c 6a23 603b 31e1 823b
000002c0: 552b b6bd 7ecb 64bd aedc abbc cbf7 883d
000002d0: 4b74 fbbc 1f33 0ebd 1c60 d9bd 7a14 213d
000002e0: fd5e f1bc e57d 133d f726 84bd ba97 76bc
000002f0: f47e ed3c ec82 0cbd 7332 48bd b2ae 7f3d
00000300: 9e0d 1abd 0616 91ba 2ea1 37bc 661f ebbc
00000310: 6a62 9e3d 2ca3 ffbc 9610 cdbb 5f3c 7c3d
00000320: 03b8 09bd d986 09bc 5285 a83c 7fc7 413b
00000330: 84bf 043d 3f2d 9ebc 16cf e83a c0bb 013c
00000340: 960e 7bbb 1cb1 5abd 22a0 953d f120 a03c
00000350: 09c4 643c 8221 e9bc 5e86 27bd e9d7 a33b
00000360: e4fa 253c 3961 413d a9e4 29bd 87a7 2b3d
00000370: 2ba5 433d e304 2ebd b533 a7bb 4e8b 7c3d
00000380: e9d7 42bd e5c3 193d cf3c 8ebd 8ce0 47bd
00000390: 66d3 533c f1c2 053d 60a6 723c 7054 0b3a
000003a0: b630 5e3d 9281 613c 3b54 093d a422 e339
000003b0: 3c97 d2bc 82a5 873d 8048 22bd e75b 0ebd
000003c0: 3352 efbd 5ff8 d83c 123d 0e3d b59e 3cbd
000003d0: eed2 b03c 4e46 873d 8c55 8b3c 7d25 1abd
000003e0: 9cf9 98bc 1020 81bc 13a3 753c f209 23bd
000003f0: 7274 683d 4c32 ec3c 1bed 9cbd 782f 9c3c

vanilla_astar.astar.neighbor_filter f4 [1, 1, 3, 3]
1.0 1.0 1.0 1.0 0.0 1.0 1.0 1.0
1.0
00000000: 0000 803f 0000 803f 0000 803f 0000 803f
00000010: 0000 0000 0000 803f 0000 803f 0000 803f
00000020: 0000 803f
